<?xml version="1.0" ?>
<net name="hand_landmark" version="10">
	<layers>
		<layer id="0" name="p_re_lu_124/p_re_lu_124/Alpha/read/Output_0/Data_/copy_const" type="Const" version="opset1">
			<data element_type="f16" offset="0" shape="1,256,1,1" size="512"/>
			<output>
				<port id="1" precision="FP16">
					<dim>1</dim>
					<dim>256</dim>
					<dim>1</dim>
					<dim>1</dim>
				</port>
			</output>
		</layer>
		<layer id="1" name="p_re_lu_122/p_re_lu_122/Alpha/read/Output_0/Data_/copy_const" type="Const" version="opset1">
			<data element_type="f16" offset="512" shape="1,256,1,1" size="512"/>
			<output>
				<port id="1" precision="FP16">
					<dim>1</dim>
					<dim>256</dim>
					<dim>1</dim>
					<dim>1</dim>
				</port>
			</output>
		</layer>
		<layer id="2" name="p_re_lu_120/p_re_lu_120/Alpha/read/Output_0/Data_/copy_const" type="Const" version="opset1">
			<data element_type="f16" offset="1024" shape="1,256,1,1" size="512"/>
			<output>
				<port id="1" precision="FP16">
					<dim>1</dim>
					<dim>256</dim>
					<dim>1</dim>
					<dim>1</dim>
				</port>
			</output>
		</layer>
		<layer id="3" name="p_re_lu_118/p_re_lu_118/Alpha/read/Output_0/Data_/copy_const" type="Const" version="opset1">
			<data element_type="f16" offset="1536" shape="1,256,1,1" size="512"/>
			<output>
				<port id="1" precision="FP16">
					<dim>1</dim>
					<dim>256</dim>
					<dim>1</dim>
					<dim>1</dim>
				</port>
			</output>
		</layer>
		<layer id="4" name="p_re_lu_116/p_re_lu_116/Alpha/read/Output_0/Data_/copy_const" type="Const" version="opset1">
			<data element_type="f16" offset="2048" shape="1,256,1,1" size="512"/>
			<output>
				<port id="1" precision="FP16">
					<dim>1</dim>
					<dim>256</dim>
					<dim>1</dim>
					<dim>1</dim>
				</port>
			</output>
		</layer>
		<layer id="5" name="p_re_lu_114/p_re_lu_114/Alpha/read/Output_0/Data_/copy_const" type="Const" version="opset1">
			<data element_type="f16" offset="2560" shape="1,256,1,1" size="512"/>
			<output>
				<port id="1" precision="FP16">
					<dim>1</dim>
					<dim>256</dim>
					<dim>1</dim>
					<dim>1</dim>
				</port>
			</output>
		</layer>
		<layer id="6" name="p_re_lu_112/p_re_lu_112/Alpha/read/Output_0/Data_/copy_const" type="Const" version="opset1">
			<data element_type="f16" offset="3072" shape="1,256,1,1" size="512"/>
			<output>
				<port id="1" precision="FP16">
					<dim>1</dim>
					<dim>256</dim>
					<dim>1</dim>
					<dim>1</dim>
				</port>
			</output>
		</layer>
		<layer id="7" name="p_re_lu_110/p_re_lu_110/Alpha/read/Output_0/Data_/copy_const" type="Const" version="opset1">
			<data element_type="f16" offset="3584" shape="1,256,1,1" size="512"/>
			<output>
				<port id="1" precision="FP16">
					<dim>1</dim>
					<dim>256</dim>
					<dim>1</dim>
					<dim>1</dim>
				</port>
			</output>
		</layer>
		<layer id="8" name="p_re_lu_108/p_re_lu_108/Alpha/read/Output_0/Data_/copy_const" type="Const" version="opset1">
			<data element_type="f16" offset="4096" shape="1,256,1,1" size="512"/>
			<output>
				<port id="1" precision="FP16">
					<dim>1</dim>
					<dim>256</dim>
					<dim>1</dim>
					<dim>1</dim>
				</port>
			</output>
		</layer>
		<layer id="9" name="p_re_lu_106/p_re_lu_106/Alpha/read/Output_0/Data_/copy_const" type="Const" version="opset1">
			<data element_type="f16" offset="4608" shape="1,256,1,1" size="512"/>
			<output>
				<port id="1" precision="FP16">
					<dim>1</dim>
					<dim>256</dim>
					<dim>1</dim>
					<dim>1</dim>
				</port>
			</output>
		</layer>
		<layer id="10" name="p_re_lu_104/p_re_lu_104/Alpha/read/Output_0/Data_/copy_const" type="Const" version="opset1">
			<data element_type="f16" offset="5120" shape="1,256,1,1" size="512"/>
			<output>
				<port id="1" precision="FP16">
					<dim>1</dim>
					<dim>256</dim>
					<dim>1</dim>
					<dim>1</dim>
				</port>
			</output>
		</layer>
		<layer id="11" name="p_re_lu_102/p_re_lu_102/Alpha/read/Output_0/Data_/copy_const" type="Const" version="opset1">
			<data element_type="f16" offset="5632" shape="1,256,1,1" size="512"/>
			<output>
				<port id="1" precision="FP16">
					<dim>1</dim>
					<dim>256</dim>
					<dim>1</dim>
					<dim>1</dim>
				</port>
			</output>
		</layer>
		<layer id="12" name="p_re_lu_100/p_re_lu_100/Alpha/read/Output_0/Data_/copy_const" type="Const" version="opset1">
			<data element_type="f16" offset="6144" shape="1,256,1,1" size="512"/>
			<output>
				<port id="1" precision="FP16">
					<dim>1</dim>
					<dim>256</dim>
					<dim>1</dim>
					<dim>1</dim>
				</port>
			</output>
		</layer>
		<layer id="13" name="p_re_lu_98/p_re_lu_98/Alpha/read/Output_0/Data_/copy_const" type="Const" version="opset1">
			<data element_type="f16" offset="6656" shape="1,256,1,1" size="512"/>
			<output>
				<port id="1" precision="FP16">
					<dim>1</dim>
					<dim>256</dim>
					<dim>1</dim>
					<dim>1</dim>
				</port>
			</output>
		</layer>
		<layer id="14" name="p_re_lu_96/p_re_lu_96/Alpha/read/Output_0/Data_/copy_const" type="Const" version="opset1">
			<data element_type="f16" offset="7168" shape="1,256,1,1" size="512"/>
			<output>
				<port id="1" precision="FP16">
					<dim>1</dim>
					<dim>256</dim>
					<dim>1</dim>
					<dim>1</dim>
				</port>
			</output>
		</layer>
		<layer id="15" name="p_re_lu_94/p_re_lu_94/Alpha/read/Output_0/Data_/copy_const" type="Const" version="opset1">
			<data element_type="f16" offset="7680" shape="1,256,1,1" size="512"/>
			<output>
				<port id="1" precision="FP16">
					<dim>1</dim>
					<dim>256</dim>
					<dim>1</dim>
					<dim>1</dim>
				</port>
			</output>
		</layer>
		<layer id="16" name="p_re_lu_92/p_re_lu_92/Alpha/read/Output_0/Data_/copy_const" type="Const" version="opset1">
			<data element_type="f16" offset="8192" shape="1,256,1,1" size="512"/>
			<output>
				<port id="1" precision="FP16">
					<dim>1</dim>
					<dim>256</dim>
					<dim>1</dim>
					<dim>1</dim>
				</port>
			</output>
		</layer>
		<layer id="17" name="p_re_lu_90/p_re_lu_90/Alpha/read/Output_0/Data_/copy_const" type="Const" version="opset1">
			<data element_type="f16" offset="8704" shape="1,256,1,1" size="512"/>
			<output>
				<port id="1" precision="FP16">
					<dim>1</dim>
					<dim>256</dim>
					<dim>1</dim>
					<dim>1</dim>
				</port>
			</output>
		</layer>
		<layer id="18" name="p_re_lu_88/p_re_lu_88/Alpha/read/Output_0/Data_/copy_const" type="Const" version="opset1">
			<data element_type="f16" offset="9216" shape="1,256,1,1" size="512"/>
			<output>
				<port id="1" precision="FP16">
					<dim>1</dim>
					<dim>256</dim>
					<dim>1</dim>
					<dim>1</dim>
				</port>
			</output>
		</layer>
		<layer id="19" name="p_re_lu_86/p_re_lu_86/Alpha/read/Output_0/Data_/copy_const" type="Const" version="opset1">
			<data element_type="f16" offset="9728" shape="1,256,1,1" size="512"/>
			<output>
				<port id="1" precision="FP16">
					<dim>1</dim>
					<dim>256</dim>
					<dim>1</dim>
					<dim>1</dim>
				</port>
			</output>
		</layer>
		<layer id="20" name="p_re_lu_84/p_re_lu_84/Alpha/read/Output_0/Data_/copy_const" type="Const" version="opset1">
			<data element_type="f16" offset="10240" shape="1,256,1,1" size="512"/>
			<output>
				<port id="1" precision="FP16">
					<dim>1</dim>
					<dim>256</dim>
					<dim>1</dim>
					<dim>1</dim>
				</port>
			</output>
		</layer>
		<layer id="21" name="p_re_lu_82/p_re_lu_82/Alpha/read/Output_0/Data_/copy_const" type="Const" version="opset1">
			<data element_type="f16" offset="10752" shape="1,256,1,1" size="512"/>
			<output>
				<port id="1" precision="FP16">
					<dim>1</dim>
					<dim>256</dim>
					<dim>1</dim>
					<dim>1</dim>
				</port>
			</output>
		</layer>
		<layer id="22" name="p_re_lu_80/p_re_lu_80/Alpha/read/Output_0/Data_/copy_const" type="Const" version="opset1">
			<data element_type="f16" offset="11264" shape="1,256,1,1" size="512"/>
			<output>
				<port id="1" precision="FP16">
					<dim>1</dim>
					<dim>256</dim>
					<dim>1</dim>
					<dim>1</dim>
				</port>
			</output>
		</layer>
		<layer id="23" name="p_re_lu_78/p_re_lu_78/Alpha/read/Output_0/Data_/copy_const" type="Const" version="opset1">
			<data element_type="f16" offset="11776" shape="1,256,1,1" size="512"/>
			<output>
				<port id="1" precision="FP16">
					<dim>1</dim>
					<dim>256</dim>
					<dim>1</dim>
					<dim>1</dim>
				</port>
			</output>
		</layer>
		<layer id="24" name="p_re_lu_76/p_re_lu_76/Alpha/read/Output_0/Data_/copy_const" type="Const" version="opset1">
			<data element_type="f16" offset="12288" shape="1,256,1,1" size="512"/>
			<output>
				<port id="1" precision="FP16">
					<dim>1</dim>
					<dim>256</dim>
					<dim>1</dim>
					<dim>1</dim>
				</port>
			</output>
		</layer>
		<layer id="25" name="p_re_lu_74/p_re_lu_74/Alpha/read/Output_0/Data_/copy_const" type="Const" version="opset1">
			<data element_type="f16" offset="12800" shape="1,256,1,1" size="512"/>
			<output>
				<port id="1" precision="FP16">
					<dim>1</dim>
					<dim>256</dim>
					<dim>1</dim>
					<dim>1</dim>
				</port>
			</output>
		</layer>
		<layer id="26" name="p_re_lu_72/p_re_lu_72/Alpha/read/Output_0/Data_/copy_const" type="Const" version="opset1">
			<data element_type="f16" offset="13312" shape="1,256,1,1" size="512"/>
			<output>
				<port id="1" precision="FP16">
					<dim>1</dim>
					<dim>256</dim>
					<dim>1</dim>
					<dim>1</dim>
				</port>
			</output>
		</layer>
		<layer id="27" name="p_re_lu_70/p_re_lu_70/Alpha/read/Output_0/Data_/copy_const" type="Const" version="opset1">
			<data element_type="f16" offset="13824" shape="1,256,1,1" size="512"/>
			<output>
				<port id="1" precision="FP16">
					<dim>1</dim>
					<dim>256</dim>
					<dim>1</dim>
					<dim>1</dim>
				</port>
			</output>
		</layer>
		<layer id="28" name="p_re_lu_68/p_re_lu_68/Alpha/read/Output_0/Data_/copy_const" type="Const" version="opset1">
			<data element_type="f16" offset="14336" shape="1,256,1,1" size="512"/>
			<output>
				<port id="1" precision="FP16">
					<dim>1</dim>
					<dim>256</dim>
					<dim>1</dim>
					<dim>1</dim>
				</port>
			</output>
		</layer>
		<layer id="29" name="p_re_lu_66/p_re_lu_66/Alpha/read/Output_0/Data_/copy_const" type="Const" version="opset1">
			<data element_type="f16" offset="14848" shape="1,256,1,1" size="512"/>
			<output>
				<port id="1" precision="FP16">
					<dim>1</dim>
					<dim>256</dim>
					<dim>1</dim>
					<dim>1</dim>
				</port>
			</output>
		</layer>
		<layer id="30" name="p_re_lu_64/p_re_lu_64/Alpha/read/Output_0/Data_/copy_const" type="Const" version="opset1">
			<data element_type="f16" offset="15360" shape="1,256,1,1" size="512"/>
			<output>
				<port id="1" precision="FP16">
					<dim>1</dim>
					<dim>256</dim>
					<dim>1</dim>
					<dim>1</dim>
				</port>
			</output>
		</layer>
		<layer id="31" name="p_re_lu_62/p_re_lu_62/Alpha/read/Output_0/Data_/copy_const" type="Const" version="opset1">
			<data element_type="f16" offset="15872" shape="1,256,1,1" size="512"/>
			<output>
				<port id="1" precision="FP16">
					<dim>1</dim>
					<dim>256</dim>
					<dim>1</dim>
					<dim>1</dim>
				</port>
			</output>
		</layer>
		<layer id="32" name="p_re_lu_60/p_re_lu_60/Alpha/read/Output_0/Data_/copy_const" type="Const" version="opset1">
			<data element_type="f16" offset="16384" shape="1,256,1,1" size="512"/>
			<output>
				<port id="1" precision="FP16">
					<dim>1</dim>
					<dim>256</dim>
					<dim>1</dim>
					<dim>1</dim>
				</port>
			</output>
		</layer>
		<layer id="33" name="p_re_lu_58/p_re_lu_58/Alpha/read/Output_0/Data_/copy_const" type="Const" version="opset1">
			<data element_type="f16" offset="16896" shape="1,256,1,1" size="512"/>
			<output>
				<port id="1" precision="FP16">
					<dim>1</dim>
					<dim>256</dim>
					<dim>1</dim>
					<dim>1</dim>
				</port>
			</output>
		</layer>
		<layer id="34" name="p_re_lu_56/p_re_lu_56/Alpha/read/Output_0/Data_/copy_const" type="Const" version="opset1">
			<data element_type="f16" offset="17408" shape="1,256,1,1" size="512"/>
			<output>
				<port id="1" precision="FP16">
					<dim>1</dim>
					<dim>256</dim>
					<dim>1</dim>
					<dim>1</dim>
				</port>
			</output>
		</layer>
		<layer id="35" name="p_re_lu_54/p_re_lu_54/Alpha/read/Output_0/Data_/copy_const" type="Const" version="opset1">
			<data element_type="f16" offset="17920" shape="1,256,1,1" size="512"/>
			<output>
				<port id="1" precision="FP16">
					<dim>1</dim>
					<dim>256</dim>
					<dim>1</dim>
					<dim>1</dim>
				</port>
			</output>
		</layer>
		<layer id="36" name="p_re_lu_52/p_re_lu_52/Alpha/read/Output_0/Data_/copy_const" type="Const" version="opset1">
			<data element_type="f16" offset="18432" shape="1,64,1,1" size="128"/>
			<output>
				<port id="1" precision="FP16">
					<dim>1</dim>
					<dim>64</dim>
					<dim>1</dim>
					<dim>1</dim>
				</port>
			</output>
		</layer>
		<layer id="37" name="p_re_lu_50/p_re_lu_50/Alpha/read/Output_0/Data_/copy_const" type="Const" version="opset1">
			<data element_type="f16" offset="18560" shape="1,64,1,1" size="128"/>
			<output>
				<port id="1" precision="FP16">
					<dim>1</dim>
					<dim>64</dim>
					<dim>1</dim>
					<dim>1</dim>
				</port>
			</output>
		</layer>
		<layer id="38" name="p_re_lu_48/p_re_lu_48/Alpha/read/Output_0/Data_/copy_const" type="Const" version="opset1">
			<data element_type="f16" offset="18688" shape="1,64,1,1" size="128"/>
			<output>
				<port id="1" precision="FP16">
					<dim>1</dim>
					<dim>64</dim>
					<dim>1</dim>
					<dim>1</dim>
				</port>
			</output>
		</layer>
		<layer id="39" name="p_re_lu_46/p_re_lu_46/Alpha/read/Output_0/Data_/copy_const" type="Const" version="opset1">
			<data element_type="f16" offset="18816" shape="1,64,1,1" size="128"/>
			<output>
				<port id="1" precision="FP16">
					<dim>1</dim>
					<dim>64</dim>
					<dim>1</dim>
					<dim>1</dim>
				</port>
			</output>
		</layer>
		<layer id="40" name="p_re_lu_44/p_re_lu_44/Alpha/read/Output_0/Data_/copy_const" type="Const" version="opset1">
			<data element_type="f16" offset="18944" shape="1,64,1,1" size="128"/>
			<output>
				<port id="1" precision="FP16">
					<dim>1</dim>
					<dim>64</dim>
					<dim>1</dim>
					<dim>1</dim>
				</port>
			</output>
		</layer>
		<layer id="41" name="p_re_lu_42/p_re_lu_42/Alpha/read/Output_0/Data_/copy_const" type="Const" version="opset1">
			<data element_type="f16" offset="19072" shape="1,64,1,1" size="128"/>
			<output>
				<port id="1" precision="FP16">
					<dim>1</dim>
					<dim>64</dim>
					<dim>1</dim>
					<dim>1</dim>
				</port>
			</output>
		</layer>
		<layer id="42" name="p_re_lu_40/p_re_lu_40/Alpha/read/Output_0/Data_/copy_const" type="Const" version="opset1">
			<data element_type="f16" offset="19200" shape="1,64,1,1" size="128"/>
			<output>
				<port id="1" precision="FP16">
					<dim>1</dim>
					<dim>64</dim>
					<dim>1</dim>
					<dim>1</dim>
				</port>
			</output>
		</layer>
		<layer id="43" name="p_re_lu_38/p_re_lu_38/Alpha/read/Output_0/Data_/copy_const" type="Const" version="opset1">
			<data element_type="f16" offset="19328" shape="1,64,1,1" size="128"/>
			<output>
				<port id="1" precision="FP16">
					<dim>1</dim>
					<dim>64</dim>
					<dim>1</dim>
					<dim>1</dim>
				</port>
			</output>
		</layer>
		<layer id="44" name="p_re_lu_36/p_re_lu_36/Alpha/read/Output_0/Data_/copy_const" type="Const" version="opset1">
			<data element_type="f16" offset="19456" shape="1,64,1,1" size="128"/>
			<output>
				<port id="1" precision="FP16">
					<dim>1</dim>
					<dim>64</dim>
					<dim>1</dim>
					<dim>1</dim>
				</port>
			</output>
		</layer>
		<layer id="45" name="p_re_lu_34/p_re_lu_34/Alpha/read/Output_0/Data_/copy_const" type="Const" version="opset1">
			<data element_type="f16" offset="19584" shape="1,32,1,1" size="64"/>
			<output>
				<port id="1" precision="FP16">
					<dim>1</dim>
					<dim>32</dim>
					<dim>1</dim>
					<dim>1</dim>
				</port>
			</output>
		</layer>
		<layer id="46" name="p_re_lu_32/p_re_lu_32/Alpha/read/Output_0/Data_/copy_const" type="Const" version="opset1">
			<data element_type="f16" offset="19648" shape="1,32,1,1" size="64"/>
			<output>
				<port id="1" precision="FP16">
					<dim>1</dim>
					<dim>32</dim>
					<dim>1</dim>
					<dim>1</dim>
				</port>
			</output>
		</layer>
		<layer id="47" name="p_re_lu_30/p_re_lu_30/Alpha/read/Output_0/Data_/copy_const" type="Const" version="opset1">
			<data element_type="f16" offset="19712" shape="1,32,1,1" size="64"/>
			<output>
				<port id="1" precision="FP16">
					<dim>1</dim>
					<dim>32</dim>
					<dim>1</dim>
					<dim>1</dim>
				</port>
			</output>
		</layer>
		<layer id="48" name="p_re_lu_28/p_re_lu_28/Alpha/read/Output_0/Data_/copy_const" type="Const" version="opset1">
			<data element_type="f16" offset="19776" shape="1,32,1,1" size="64"/>
			<output>
				<port id="1" precision="FP16">
					<dim>1</dim>
					<dim>32</dim>
					<dim>1</dim>
					<dim>1</dim>
				</port>
			</output>
		</layer>
		<layer id="49" name="p_re_lu_26/p_re_lu_26/Alpha/read/Output_0/Data_/copy_const" type="Const" version="opset1">
			<data element_type="f16" offset="19840" shape="1,32,1,1" size="64"/>
			<output>
				<port id="1" precision="FP16">
					<dim>1</dim>
					<dim>32</dim>
					<dim>1</dim>
					<dim>1</dim>
				</port>
			</output>
		</layer>
		<layer id="50" name="p_re_lu_24/p_re_lu_24/Alpha/read/Output_0/Data_/copy_const" type="Const" version="opset1">
			<data element_type="f16" offset="19904" shape="1,32,1,1" size="64"/>
			<output>
				<port id="1" precision="FP16">
					<dim>1</dim>
					<dim>32</dim>
					<dim>1</dim>
					<dim>1</dim>
				</port>
			</output>
		</layer>
		<layer id="51" name="p_re_lu_22/p_re_lu_22/Alpha/read/Output_0/Data_/copy_const" type="Const" version="opset1">
			<data element_type="f16" offset="19968" shape="1,32,1,1" size="64"/>
			<output>
				<port id="1" precision="FP16">
					<dim>1</dim>
					<dim>32</dim>
					<dim>1</dim>
					<dim>1</dim>
				</port>
			</output>
		</layer>
		<layer id="52" name="p_re_lu_20/p_re_lu_20/Alpha/read/Output_0/Data_/copy_const" type="Const" version="opset1">
			<data element_type="f16" offset="20032" shape="1,32,1,1" size="64"/>
			<output>
				<port id="1" precision="FP16">
					<dim>1</dim>
					<dim>32</dim>
					<dim>1</dim>
					<dim>1</dim>
				</port>
			</output>
		</layer>
		<layer id="53" name="p_re_lu_18/p_re_lu_18/Alpha/read/Output_0/Data_/copy_const" type="Const" version="opset1">
			<data element_type="f16" offset="20096" shape="1,32,1,1" size="64"/>
			<output>
				<port id="1" precision="FP16">
					<dim>1</dim>
					<dim>32</dim>
					<dim>1</dim>
					<dim>1</dim>
				</port>
			</output>
		</layer>
		<layer id="54" name="p_re_lu_16/p_re_lu_16/Alpha/read/Output_0/Data_/copy_const" type="Const" version="opset1">
			<data element_type="f16" offset="20160" shape="1,16,1,1" size="32"/>
			<output>
				<port id="1" precision="FP16">
					<dim>1</dim>
					<dim>16</dim>
					<dim>1</dim>
					<dim>1</dim>
				</port>
			</output>
		</layer>
		<layer id="55" name="p_re_lu_14/p_re_lu_14/Alpha/read/Output_0/Data_/copy_const" type="Const" version="opset1">
			<data element_type="f16" offset="20192" shape="1,16,1,1" size="32"/>
			<output>
				<port id="1" precision="FP16">
					<dim>1</dim>
					<dim>16</dim>
					<dim>1</dim>
					<dim>1</dim>
				</port>
			</output>
		</layer>
		<layer id="56" name="p_re_lu_12/p_re_lu_12/Alpha/read/Output_0/Data_/copy_const" type="Const" version="opset1">
			<data element_type="f16" offset="20224" shape="1,16,1,1" size="32"/>
			<output>
				<port id="1" precision="FP16">
					<dim>1</dim>
					<dim>16</dim>
					<dim>1</dim>
					<dim>1</dim>
				</port>
			</output>
		</layer>
		<layer id="57" name="p_re_lu_10/p_re_lu_10/Alpha/read/Output_0/Data_/copy_const" type="Const" version="opset1">
			<data element_type="f16" offset="20256" shape="1,16,1,1" size="32"/>
			<output>
				<port id="1" precision="FP16">
					<dim>1</dim>
					<dim>16</dim>
					<dim>1</dim>
					<dim>1</dim>
				</port>
			</output>
		</layer>
		<layer id="58" name="p_re_lu_8/p_re_lu_8/Alpha/read/Output_0/Data_/copy_const" type="Const" version="opset1">
			<data element_type="f16" offset="20288" shape="1,16,1,1" size="32"/>
			<output>
				<port id="1" precision="FP16">
					<dim>1</dim>
					<dim>16</dim>
					<dim>1</dim>
					<dim>1</dim>
				</port>
			</output>
		</layer>
		<layer id="59" name="p_re_lu_6/p_re_lu_6/Alpha/read/Output_0/Data_/copy_const" type="Const" version="opset1">
			<data element_type="f16" offset="20320" shape="1,16,1,1" size="32"/>
			<output>
				<port id="1" precision="FP16">
					<dim>1</dim>
					<dim>16</dim>
					<dim>1</dim>
					<dim>1</dim>
				</port>
			</output>
		</layer>
		<layer id="60" name="p_re_lu_4/p_re_lu_4/Alpha/read/Output_0/Data_/copy_const" type="Const" version="opset1">
			<data element_type="f16" offset="20352" shape="1,16,1,1" size="32"/>
			<output>
				<port id="1" precision="FP16">
					<dim>1</dim>
					<dim>16</dim>
					<dim>1</dim>
					<dim>1</dim>
				</port>
			</output>
		</layer>
		<layer id="61" name="p_re_lu_2/p_re_lu_2/Alpha/read/Output_0/Data_/copy_const" type="Const" version="opset1">
			<data element_type="f16" offset="20384" shape="1,16,1,1" size="32"/>
			<output>
				<port id="1" precision="FP16">
					<dim>1</dim>
					<dim>16</dim>
					<dim>1</dim>
					<dim>1</dim>
				</port>
			</output>
		</layer>
		<layer id="62" name="p_re_lu/p_re_lu/Alpha/read/Output_0/Data_/copy_const" type="Const" version="opset1">
			<data element_type="f16" offset="20416" shape="1,16,1,1" size="32"/>
			<output>
				<port id="1" precision="FP16">
					<dim>1</dim>
					<dim>16</dim>
					<dim>1</dim>
					<dim>1</dim>
				</port>
			</output>
		</layer>
		<layer id="63" name="input_1" type="Parameter" version="opset1">
			<data element_type="f16" shape="1,3,256,256"/>
			<output>
				<port id="0" precision="FP16">
					<dim>1</dim>
					<dim>3</dim>
					<dim>256</dim>
					<dim>256</dim>
				</port>
			</output>
		</layer>
		<layer id="64" name="conv2d/Kernel/read/Output_0/Data__const" type="Const" version="opset1">
			<data element_type="f16" offset="20448" shape="16,3,3,3" size="864"/>
			<output>
				<port id="1" precision="FP16">
					<dim>16</dim>
					<dim>3</dim>
					<dim>3</dim>
					<dim>3</dim>
				</port>
			</output>
		</layer>
		<layer id="65" name="conv2d/conv2d" type="Convolution" version="opset1">
			<data auto_pad="same_upper" dilations="1,1" output_padding="0,0" pads_begin="0,0" pads_end="0,0" strides="2,2"/>
			<input>
				<port id="0">
					<dim>1</dim>
					<dim>3</dim>
					<dim>256</dim>
					<dim>256</dim>
				</port>
				<port id="1">
					<dim>16</dim>
					<dim>3</dim>
					<dim>3</dim>
					<dim>3</dim>
				</port>
			</input>
			<output>
				<port id="2" precision="FP16">
					<dim>1</dim>
					<dim>16</dim>
					<dim>128</dim>
					<dim>128</dim>
				</port>
			</output>
		</layer>
		<layer id="66" name="conv2d/Bias/read/Output_0/Data_/copy_const" type="Const" version="opset1">
			<data element_type="f16" offset="21312" shape="1,16,1,1" size="32"/>
			<output>
				<port id="1" precision="FP16">
					<dim>1</dim>
					<dim>16</dim>
					<dim>1</dim>
					<dim>1</dim>
				</port>
			</output>
		</layer>
		<layer id="67" name="conv2d" type="Add" version="opset1">
			<input>
				<port id="0">
					<dim>1</dim>
					<dim>16</dim>
					<dim>128</dim>
					<dim>128</dim>
				</port>
				<port id="1">
					<dim>1</dim>
					<dim>16</dim>
					<dim>1</dim>
					<dim>1</dim>
				</port>
			</input>
			<output>
				<port id="2" precision="FP16">
					<dim>1</dim>
					<dim>16</dim>
					<dim>128</dim>
					<dim>128</dim>
				</port>
			</output>
		</layer>
		<layer id="68" name="p_re_lu/mul" type="Multiply" version="opset1">
			<input>
				<port id="0">
					<dim>1</dim>
					<dim>16</dim>
					<dim>1</dim>
					<dim>1</dim>
				</port>
				<port id="1">
					<dim>1</dim>
					<dim>16</dim>
					<dim>128</dim>
					<dim>128</dim>
				</port>
			</input>
			<output>
				<port id="2" precision="FP16">
					<dim>1</dim>
					<dim>16</dim>
					<dim>128</dim>
					<dim>128</dim>
				</port>
			</output>
		</layer>
		<layer id="69" name="p_re_lu/Maximum" type="Maximum" version="opset1">
			<input>
				<port id="0">
					<dim>1</dim>
					<dim>16</dim>
					<dim>128</dim>
					<dim>128</dim>
				</port>
				<port id="1">
					<dim>1</dim>
					<dim>16</dim>
					<dim>128</dim>
					<dim>128</dim>
				</port>
			</input>
			<output>
				<port id="2" precision="FP16">
					<dim>1</dim>
					<dim>16</dim>
					<dim>128</dim>
					<dim>128</dim>
				</port>
			</output>
		</layer>
		<layer id="70" name="p_re_lu_1/p_re_lu_1/Alpha/read/Output_0/Data_/copy_const" type="Const" version="opset1">
			<data element_type="f16" offset="21344" shape="1,8,1,1" size="16"/>
			<output>
				<port id="1" precision="FP16">
					<dim>1</dim>
					<dim>8</dim>
					<dim>1</dim>
					<dim>1</dim>
				</port>
			</output>
		</layer>
		<layer id="71" name="conv2d_1/Kernel/read/Output_0/Data__const" type="Const" version="opset1">
			<data element_type="f16" offset="21360" shape="8,16,1,1" size="256"/>
			<output>
				<port id="1" precision="FP16">
					<dim>8</dim>
					<dim>16</dim>
					<dim>1</dim>
					<dim>1</dim>
				</port>
			</output>
		</layer>
		<layer id="72" name="conv2d_1/conv2d" type="Convolution" version="opset1">
			<data auto_pad="valid" dilations="1,1" output_padding="0,0" pads_begin="0,0" pads_end="0,0" strides="1,1"/>
			<input>
				<port id="0">
					<dim>1</dim>
					<dim>16</dim>
					<dim>128</dim>
					<dim>128</dim>
				</port>
				<port id="1">
					<dim>8</dim>
					<dim>16</dim>
					<dim>1</dim>
					<dim>1</dim>
				</port>
			</input>
			<output>
				<port id="2" precision="FP16">
					<dim>1</dim>
					<dim>8</dim>
					<dim>128</dim>
					<dim>128</dim>
				</port>
			</output>
		</layer>
		<layer id="73" name="conv2d_1/Bias/read/Output_0/Data_/copy_const" type="Const" version="opset1">
			<data element_type="f16" offset="21616" shape="1,8,1,1" size="16"/>
			<output>
				<port id="1" precision="FP16">
					<dim>1</dim>
					<dim>8</dim>
					<dim>1</dim>
					<dim>1</dim>
				</port>
			</output>
		</layer>
		<layer id="74" name="conv2d_1" type="Add" version="opset1">
			<input>
				<port id="0">
					<dim>1</dim>
					<dim>8</dim>
					<dim>128</dim>
					<dim>128</dim>
				</port>
				<port id="1">
					<dim>1</dim>
					<dim>8</dim>
					<dim>1</dim>
					<dim>1</dim>
				</port>
			</input>
			<output>
				<port id="2" precision="FP16">
					<dim>1</dim>
					<dim>8</dim>
					<dim>128</dim>
					<dim>128</dim>
				</port>
			</output>
		</layer>
		<layer id="75" name="p_re_lu_1/mul" type="Multiply" version="opset1">
			<input>
				<port id="0">
					<dim>1</dim>
					<dim>8</dim>
					<dim>1</dim>
					<dim>1</dim>
				</port>
				<port id="1">
					<dim>1</dim>
					<dim>8</dim>
					<dim>128</dim>
					<dim>128</dim>
				</port>
			</input>
			<output>
				<port id="2" precision="FP16">
					<dim>1</dim>
					<dim>8</dim>
					<dim>128</dim>
					<dim>128</dim>
				</port>
			</output>
		</layer>
		<layer id="76" name="p_re_lu_1/Maximum" type="Maximum" version="opset1">
			<input>
				<port id="0">
					<dim>1</dim>
					<dim>8</dim>
					<dim>128</dim>
					<dim>128</dim>
				</port>
				<port id="1">
					<dim>1</dim>
					<dim>8</dim>
					<dim>128</dim>
					<dim>128</dim>
				</port>
			</input>
			<output>
				<port id="2" precision="FP16">
					<dim>1</dim>
					<dim>8</dim>
					<dim>128</dim>
					<dim>128</dim>
				</port>
			</output>
		</layer>
		<layer id="77" name="3854138544_const" type="Const" version="opset1">
			<data element_type="f16" offset="21632" shape="8,1,1,3,3" size="144"/>
			<output>
				<port id="1" precision="FP16">
					<dim>8</dim>
					<dim>1</dim>
					<dim>1</dim>
					<dim>3</dim>
					<dim>3</dim>
				</port>
			</output>
		</layer>
		<layer id="78" name="depthwise_conv2d/depthwise_conv2d" type="GroupConvolution" version="opset1">
			<data auto_pad="same_upper" dilations="1,1" output_padding="0,0" pads_begin="0,0" pads_end="0,0" strides="1,1"/>
			<input>
				<port id="0">
					<dim>1</dim>
					<dim>8</dim>
					<dim>128</dim>
					<dim>128</dim>
				</port>
				<port id="1">
					<dim>8</dim>
					<dim>1</dim>
					<dim>1</dim>
					<dim>3</dim>
					<dim>3</dim>
				</port>
			</input>
			<output>
				<port id="2" precision="FP16">
					<dim>1</dim>
					<dim>8</dim>
					<dim>128</dim>
					<dim>128</dim>
				</port>
			</output>
		</layer>
		<layer id="79" name="depthwise_conv2d/Bias/read/Output_0/Data_/copy_const" type="Const" version="opset1">
			<data element_type="f16" offset="21776" shape="1,8,1,1" size="16"/>
			<output>
				<port id="1" precision="FP16">
					<dim>1</dim>
					<dim>8</dim>
					<dim>1</dim>
					<dim>1</dim>
				</port>
			</output>
		</layer>
		<layer id="80" name="depthwise_conv2d" type="Add" version="opset1">
			<input>
				<port id="0">
					<dim>1</dim>
					<dim>8</dim>
					<dim>128</dim>
					<dim>128</dim>
				</port>
				<port id="1">
					<dim>1</dim>
					<dim>8</dim>
					<dim>1</dim>
					<dim>1</dim>
				</port>
			</input>
			<output>
				<port id="2" precision="FP16">
					<dim>1</dim>
					<dim>8</dim>
					<dim>128</dim>
					<dim>128</dim>
				</port>
			</output>
		</layer>
		<layer id="81" name="conv2d_2/Kernel/read/Output_0/Data__const" type="Const" version="opset1">
			<data element_type="f16" offset="21792" shape="16,8,1,1" size="256"/>
			<output>
				<port id="1" precision="FP16">
					<dim>16</dim>
					<dim>8</dim>
					<dim>1</dim>
					<dim>1</dim>
				</port>
			</output>
		</layer>
		<layer id="82" name="conv2d_2/conv2d" type="Convolution" version="opset1">
			<data auto_pad="valid" dilations="1,1" output_padding="0,0" pads_begin="0,0" pads_end="0,0" strides="1,1"/>
			<input>
				<port id="0">
					<dim>1</dim>
					<dim>8</dim>
					<dim>128</dim>
					<dim>128</dim>
				</port>
				<port id="1">
					<dim>16</dim>
					<dim>8</dim>
					<dim>1</dim>
					<dim>1</dim>
				</port>
			</input>
			<output>
				<port id="2" precision="FP16">
					<dim>1</dim>
					<dim>16</dim>
					<dim>128</dim>
					<dim>128</dim>
				</port>
			</output>
		</layer>
		<layer id="83" name="conv2d_2/Bias/read/Output_0/Data_/copy_const" type="Const" version="opset1">
			<data element_type="f16" offset="22048" shape="1,16,1,1" size="32"/>
			<output>
				<port id="1" precision="FP16">
					<dim>1</dim>
					<dim>16</dim>
					<dim>1</dim>
					<dim>1</dim>
				</port>
			</output>
		</layer>
		<layer id="84" name="conv2d_2" type="Add" version="opset1">
			<input>
				<port id="0">
					<dim>1</dim>
					<dim>16</dim>
					<dim>128</dim>
					<dim>128</dim>
				</port>
				<port id="1">
					<dim>1</dim>
					<dim>16</dim>
					<dim>1</dim>
					<dim>1</dim>
				</port>
			</input>
			<output>
				<port id="2" precision="FP16">
					<dim>1</dim>
					<dim>16</dim>
					<dim>128</dim>
					<dim>128</dim>
				</port>
			</output>
		</layer>
		<layer id="85" name="add" type="Add" version="opset1">
			<input>
				<port id="0">
					<dim>1</dim>
					<dim>16</dim>
					<dim>128</dim>
					<dim>128</dim>
				</port>
				<port id="1">
					<dim>1</dim>
					<dim>16</dim>
					<dim>128</dim>
					<dim>128</dim>
				</port>
			</input>
			<output>
				<port id="2" precision="FP16">
					<dim>1</dim>
					<dim>16</dim>
					<dim>128</dim>
					<dim>128</dim>
				</port>
			</output>
		</layer>
		<layer id="86" name="p_re_lu_2/mul" type="Multiply" version="opset1">
			<input>
				<port id="0">
					<dim>1</dim>
					<dim>16</dim>
					<dim>1</dim>
					<dim>1</dim>
				</port>
				<port id="1">
					<dim>1</dim>
					<dim>16</dim>
					<dim>128</dim>
					<dim>128</dim>
				</port>
			</input>
			<output>
				<port id="2" precision="FP16">
					<dim>1</dim>
					<dim>16</dim>
					<dim>128</dim>
					<dim>128</dim>
				</port>
			</output>
		</layer>
		<layer id="87" name="p_re_lu_2/Maximum" type="Maximum" version="opset1">
			<input>
				<port id="0">
					<dim>1</dim>
					<dim>16</dim>
					<dim>128</dim>
					<dim>128</dim>
				</port>
				<port id="1">
					<dim>1</dim>
					<dim>16</dim>
					<dim>128</dim>
					<dim>128</dim>
				</port>
			</input>
			<output>
				<port id="2" precision="FP16">
					<dim>1</dim>
					<dim>16</dim>
					<dim>128</dim>
					<dim>128</dim>
				</port>
			</output>
		</layer>
		<layer id="88" name="p_re_lu_3/p_re_lu_3/Alpha/read/Output_0/Data_/copy_const" type="Const" version="opset1">
			<data element_type="f16" offset="22080" shape="1,8,1,1" size="16"/>
			<output>
				<port id="1" precision="FP16">
					<dim>1</dim>
					<dim>8</dim>
					<dim>1</dim>
					<dim>1</dim>
				</port>
			</output>
		</layer>
		<layer id="89" name="conv2d_3/Kernel/read/Output_0/Data__const" type="Const" version="opset1">
			<data element_type="f16" offset="22096" shape="8,16,1,1" size="256"/>
			<output>
				<port id="1" precision="FP16">
					<dim>8</dim>
					<dim>16</dim>
					<dim>1</dim>
					<dim>1</dim>
				</port>
			</output>
		</layer>
		<layer id="90" name="conv2d_3/conv2d" type="Convolution" version="opset1">
			<data auto_pad="valid" dilations="1,1" output_padding="0,0" pads_begin="0,0" pads_end="0,0" strides="1,1"/>
			<input>
				<port id="0">
					<dim>1</dim>
					<dim>16</dim>
					<dim>128</dim>
					<dim>128</dim>
				</port>
				<port id="1">
					<dim>8</dim>
					<dim>16</dim>
					<dim>1</dim>
					<dim>1</dim>
				</port>
			</input>
			<output>
				<port id="2" precision="FP16">
					<dim>1</dim>
					<dim>8</dim>
					<dim>128</dim>
					<dim>128</dim>
				</port>
			</output>
		</layer>
		<layer id="91" name="conv2d_3/Bias/read/Output_0/Data_/copy_const" type="Const" version="opset1">
			<data element_type="f16" offset="22352" shape="1,8,1,1" size="16"/>
			<output>
				<port id="1" precision="FP16">
					<dim>1</dim>
					<dim>8</dim>
					<dim>1</dim>
					<dim>1</dim>
				</port>
			</output>
		</layer>
		<layer id="92" name="conv2d_3" type="Add" version="opset1">
			<input>
				<port id="0">
					<dim>1</dim>
					<dim>8</dim>
					<dim>128</dim>
					<dim>128</dim>
				</port>
				<port id="1">
					<dim>1</dim>
					<dim>8</dim>
					<dim>1</dim>
					<dim>1</dim>
				</port>
			</input>
			<output>
				<port id="2" precision="FP16">
					<dim>1</dim>
					<dim>8</dim>
					<dim>128</dim>
					<dim>128</dim>
				</port>
			</output>
		</layer>
		<layer id="93" name="p_re_lu_3/mul" type="Multiply" version="opset1">
			<input>
				<port id="0">
					<dim>1</dim>
					<dim>8</dim>
					<dim>1</dim>
					<dim>1</dim>
				</port>
				<port id="1">
					<dim>1</dim>
					<dim>8</dim>
					<dim>128</dim>
					<dim>128</dim>
				</port>
			</input>
			<output>
				<port id="2" precision="FP16">
					<dim>1</dim>
					<dim>8</dim>
					<dim>128</dim>
					<dim>128</dim>
				</port>
			</output>
		</layer>
		<layer id="94" name="p_re_lu_3/Maximum" type="Maximum" version="opset1">
			<input>
				<port id="0">
					<dim>1</dim>
					<dim>8</dim>
					<dim>128</dim>
					<dim>128</dim>
				</port>
				<port id="1">
					<dim>1</dim>
					<dim>8</dim>
					<dim>128</dim>
					<dim>128</dim>
				</port>
			</input>
			<output>
				<port id="2" precision="FP16">
					<dim>1</dim>
					<dim>8</dim>
					<dim>128</dim>
					<dim>128</dim>
				</port>
			</output>
		</layer>
		<layer id="95" name="3870138704_const" type="Const" version="opset1">
			<data element_type="f16" offset="22368" shape="8,1,1,3,3" size="144"/>
			<output>
				<port id="1" precision="FP16">
					<dim>8</dim>
					<dim>1</dim>
					<dim>1</dim>
					<dim>3</dim>
					<dim>3</dim>
				</port>
			</output>
		</layer>
		<layer id="96" name="depthwise_conv2d_1/depthwise_conv2d" type="GroupConvolution" version="opset1">
			<data auto_pad="same_upper" dilations="1,1" output_padding="0,0" pads_begin="0,0" pads_end="0,0" strides="1,1"/>
			<input>
				<port id="0">
					<dim>1</dim>
					<dim>8</dim>
					<dim>128</dim>
					<dim>128</dim>
				</port>
				<port id="1">
					<dim>8</dim>
					<dim>1</dim>
					<dim>1</dim>
					<dim>3</dim>
					<dim>3</dim>
				</port>
			</input>
			<output>
				<port id="2" precision="FP16">
					<dim>1</dim>
					<dim>8</dim>
					<dim>128</dim>
					<dim>128</dim>
				</port>
			</output>
		</layer>
		<layer id="97" name="depthwise_conv2d_1/Bias/read/Output_0/Data_/copy_const" type="Const" version="opset1">
			<data element_type="f16" offset="21776" shape="1,8,1,1" size="16"/>
			<output>
				<port id="1" precision="FP16">
					<dim>1</dim>
					<dim>8</dim>
					<dim>1</dim>
					<dim>1</dim>
				</port>
			</output>
		</layer>
		<layer id="98" name="depthwise_conv2d_1" type="Add" version="opset1">
			<input>
				<port id="0">
					<dim>1</dim>
					<dim>8</dim>
					<dim>128</dim>
					<dim>128</dim>
				</port>
				<port id="1">
					<dim>1</dim>
					<dim>8</dim>
					<dim>1</dim>
					<dim>1</dim>
				</port>
			</input>
			<output>
				<port id="2" precision="FP16">
					<dim>1</dim>
					<dim>8</dim>
					<dim>128</dim>
					<dim>128</dim>
				</port>
			</output>
		</layer>
		<layer id="99" name="conv2d_4/Kernel/read/Output_0/Data__const" type="Const" version="opset1">
			<data element_type="f16" offset="22512" shape="16,8,1,1" size="256"/>
			<output>
				<port id="1" precision="FP16">
					<dim>16</dim>
					<dim>8</dim>
					<dim>1</dim>
					<dim>1</dim>
				</port>
			</output>
		</layer>
		<layer id="100" name="conv2d_4/conv2d" type="Convolution" version="opset1">
			<data auto_pad="valid" dilations="1,1" output_padding="0,0" pads_begin="0,0" pads_end="0,0" strides="1,1"/>
			<input>
				<port id="0">
					<dim>1</dim>
					<dim>8</dim>
					<dim>128</dim>
					<dim>128</dim>
				</port>
				<port id="1">
					<dim>16</dim>
					<dim>8</dim>
					<dim>1</dim>
					<dim>1</dim>
				</port>
			</input>
			<output>
				<port id="2" precision="FP16">
					<dim>1</dim>
					<dim>16</dim>
					<dim>128</dim>
					<dim>128</dim>
				</port>
			</output>
		</layer>
		<layer id="101" name="conv2d_4/Bias/read/Output_0/Data_/copy_const" type="Const" version="opset1">
			<data element_type="f16" offset="22768" shape="1,16,1,1" size="32"/>
			<output>
				<port id="1" precision="FP16">
					<dim>1</dim>
					<dim>16</dim>
					<dim>1</dim>
					<dim>1</dim>
				</port>
			</output>
		</layer>
		<layer id="102" name="conv2d_4" type="Add" version="opset1">
			<input>
				<port id="0">
					<dim>1</dim>
					<dim>16</dim>
					<dim>128</dim>
					<dim>128</dim>
				</port>
				<port id="1">
					<dim>1</dim>
					<dim>16</dim>
					<dim>1</dim>
					<dim>1</dim>
				</port>
			</input>
			<output>
				<port id="2" precision="FP16">
					<dim>1</dim>
					<dim>16</dim>
					<dim>128</dim>
					<dim>128</dim>
				</port>
			</output>
		</layer>
		<layer id="103" name="add_1" type="Add" version="opset1">
			<input>
				<port id="0">
					<dim>1</dim>
					<dim>16</dim>
					<dim>128</dim>
					<dim>128</dim>
				</port>
				<port id="1">
					<dim>1</dim>
					<dim>16</dim>
					<dim>128</dim>
					<dim>128</dim>
				</port>
			</input>
			<output>
				<port id="2" precision="FP16">
					<dim>1</dim>
					<dim>16</dim>
					<dim>128</dim>
					<dim>128</dim>
				</port>
			</output>
		</layer>
		<layer id="104" name="p_re_lu_4/mul" type="Multiply" version="opset1">
			<input>
				<port id="0">
					<dim>1</dim>
					<dim>16</dim>
					<dim>1</dim>
					<dim>1</dim>
				</port>
				<port id="1">
					<dim>1</dim>
					<dim>16</dim>
					<dim>128</dim>
					<dim>128</dim>
				</port>
			</input>
			<output>
				<port id="2" precision="FP16">
					<dim>1</dim>
					<dim>16</dim>
					<dim>128</dim>
					<dim>128</dim>
				</port>
			</output>
		</layer>
		<layer id="105" name="p_re_lu_4/Maximum" type="Maximum" version="opset1">
			<input>
				<port id="0">
					<dim>1</dim>
					<dim>16</dim>
					<dim>128</dim>
					<dim>128</dim>
				</port>
				<port id="1">
					<dim>1</dim>
					<dim>16</dim>
					<dim>128</dim>
					<dim>128</dim>
				</port>
			</input>
			<output>
				<port id="2" precision="FP16">
					<dim>1</dim>
					<dim>16</dim>
					<dim>128</dim>
					<dim>128</dim>
				</port>
			</output>
		</layer>
		<layer id="106" name="p_re_lu_5/p_re_lu_5/Alpha/read/Output_0/Data_/copy_const" type="Const" version="opset1">
			<data element_type="f16" offset="22800" shape="1,8,1,1" size="16"/>
			<output>
				<port id="1" precision="FP16">
					<dim>1</dim>
					<dim>8</dim>
					<dim>1</dim>
					<dim>1</dim>
				</port>
			</output>
		</layer>
		<layer id="107" name="conv2d_5/Kernel/read/Output_0/Data__const" type="Const" version="opset1">
			<data element_type="f16" offset="22816" shape="8,16,1,1" size="256"/>
			<output>
				<port id="1" precision="FP16">
					<dim>8</dim>
					<dim>16</dim>
					<dim>1</dim>
					<dim>1</dim>
				</port>
			</output>
		</layer>
		<layer id="108" name="conv2d_5/conv2d" type="Convolution" version="opset1">
			<data auto_pad="valid" dilations="1,1" output_padding="0,0" pads_begin="0,0" pads_end="0,0" strides="1,1"/>
			<input>
				<port id="0">
					<dim>1</dim>
					<dim>16</dim>
					<dim>128</dim>
					<dim>128</dim>
				</port>
				<port id="1">
					<dim>8</dim>
					<dim>16</dim>
					<dim>1</dim>
					<dim>1</dim>
				</port>
			</input>
			<output>
				<port id="2" precision="FP16">
					<dim>1</dim>
					<dim>8</dim>
					<dim>128</dim>
					<dim>128</dim>
				</port>
			</output>
		</layer>
		<layer id="109" name="conv2d_5/Bias/read/Output_0/Data_/copy_const" type="Const" version="opset1">
			<data element_type="f16" offset="23072" shape="1,8,1,1" size="16"/>
			<output>
				<port id="1" precision="FP16">
					<dim>1</dim>
					<dim>8</dim>
					<dim>1</dim>
					<dim>1</dim>
				</port>
			</output>
		</layer>
		<layer id="110" name="conv2d_5" type="Add" version="opset1">
			<input>
				<port id="0">
					<dim>1</dim>
					<dim>8</dim>
					<dim>128</dim>
					<dim>128</dim>
				</port>
				<port id="1">
					<dim>1</dim>
					<dim>8</dim>
					<dim>1</dim>
					<dim>1</dim>
				</port>
			</input>
			<output>
				<port id="2" precision="FP16">
					<dim>1</dim>
					<dim>8</dim>
					<dim>128</dim>
					<dim>128</dim>
				</port>
			</output>
		</layer>
		<layer id="111" name="p_re_lu_5/mul" type="Multiply" version="opset1">
			<input>
				<port id="0">
					<dim>1</dim>
					<dim>8</dim>
					<dim>1</dim>
					<dim>1</dim>
				</port>
				<port id="1">
					<dim>1</dim>
					<dim>8</dim>
					<dim>128</dim>
					<dim>128</dim>
				</port>
			</input>
			<output>
				<port id="2" precision="FP16">
					<dim>1</dim>
					<dim>8</dim>
					<dim>128</dim>
					<dim>128</dim>
				</port>
			</output>
		</layer>
		<layer id="112" name="p_re_lu_5/Maximum" type="Maximum" version="opset1">
			<input>
				<port id="0">
					<dim>1</dim>
					<dim>8</dim>
					<dim>128</dim>
					<dim>128</dim>
				</port>
				<port id="1">
					<dim>1</dim>
					<dim>8</dim>
					<dim>128</dim>
					<dim>128</dim>
				</port>
			</input>
			<output>
				<port id="2" precision="FP16">
					<dim>1</dim>
					<dim>8</dim>
					<dim>128</dim>
					<dim>128</dim>
				</port>
			</output>
		</layer>
		<layer id="113" name="3866138664_const" type="Const" version="opset1">
			<data element_type="f16" offset="23088" shape="8,1,1,3,3" size="144"/>
			<output>
				<port id="1" precision="FP16">
					<dim>8</dim>
					<dim>1</dim>
					<dim>1</dim>
					<dim>3</dim>
					<dim>3</dim>
				</port>
			</output>
		</layer>
		<layer id="114" name="depthwise_conv2d_2/depthwise_conv2d" type="GroupConvolution" version="opset1">
			<data auto_pad="same_upper" dilations="1,1" output_padding="0,0" pads_begin="0,0" pads_end="0,0" strides="1,1"/>
			<input>
				<port id="0">
					<dim>1</dim>
					<dim>8</dim>
					<dim>128</dim>
					<dim>128</dim>
				</port>
				<port id="1">
					<dim>8</dim>
					<dim>1</dim>
					<dim>1</dim>
					<dim>3</dim>
					<dim>3</dim>
				</port>
			</input>
			<output>
				<port id="2" precision="FP16">
					<dim>1</dim>
					<dim>8</dim>
					<dim>128</dim>
					<dim>128</dim>
				</port>
			</output>
		</layer>
		<layer id="115" name="depthwise_conv2d_2/Bias/read/Output_0/Data_/copy_const" type="Const" version="opset1">
			<data element_type="f16" offset="21776" shape="1,8,1,1" size="16"/>
			<output>
				<port id="1" precision="FP16">
					<dim>1</dim>
					<dim>8</dim>
					<dim>1</dim>
					<dim>1</dim>
				</port>
			</output>
		</layer>
		<layer id="116" name="depthwise_conv2d_2" type="Add" version="opset1">
			<input>
				<port id="0">
					<dim>1</dim>
					<dim>8</dim>
					<dim>128</dim>
					<dim>128</dim>
				</port>
				<port id="1">
					<dim>1</dim>
					<dim>8</dim>
					<dim>1</dim>
					<dim>1</dim>
				</port>
			</input>
			<output>
				<port id="2" precision="FP16">
					<dim>1</dim>
					<dim>8</dim>
					<dim>128</dim>
					<dim>128</dim>
				</port>
			</output>
		</layer>
		<layer id="117" name="conv2d_6/Kernel/read/Output_0/Data__const" type="Const" version="opset1">
			<data element_type="f16" offset="23232" shape="16,8,1,1" size="256"/>
			<output>
				<port id="1" precision="FP16">
					<dim>16</dim>
					<dim>8</dim>
					<dim>1</dim>
					<dim>1</dim>
				</port>
			</output>
		</layer>
		<layer id="118" name="conv2d_6/conv2d" type="Convolution" version="opset1">
			<data auto_pad="valid" dilations="1,1" output_padding="0,0" pads_begin="0,0" pads_end="0,0" strides="1,1"/>
			<input>
				<port id="0">
					<dim>1</dim>
					<dim>8</dim>
					<dim>128</dim>
					<dim>128</dim>
				</port>
				<port id="1">
					<dim>16</dim>
					<dim>8</dim>
					<dim>1</dim>
					<dim>1</dim>
				</port>
			</input>
			<output>
				<port id="2" precision="FP16">
					<dim>1</dim>
					<dim>16</dim>
					<dim>128</dim>
					<dim>128</dim>
				</port>
			</output>
		</layer>
		<layer id="119" name="conv2d_6/Bias/read/Output_0/Data_/copy_const" type="Const" version="opset1">
			<data element_type="f16" offset="23488" shape="1,16,1,1" size="32"/>
			<output>
				<port id="1" precision="FP16">
					<dim>1</dim>
					<dim>16</dim>
					<dim>1</dim>
					<dim>1</dim>
				</port>
			</output>
		</layer>
		<layer id="120" name="conv2d_6" type="Add" version="opset1">
			<input>
				<port id="0">
					<dim>1</dim>
					<dim>16</dim>
					<dim>128</dim>
					<dim>128</dim>
				</port>
				<port id="1">
					<dim>1</dim>
					<dim>16</dim>
					<dim>1</dim>
					<dim>1</dim>
				</port>
			</input>
			<output>
				<port id="2" precision="FP16">
					<dim>1</dim>
					<dim>16</dim>
					<dim>128</dim>
					<dim>128</dim>
				</port>
			</output>
		</layer>
		<layer id="121" name="add_2" type="Add" version="opset1">
			<input>
				<port id="0">
					<dim>1</dim>
					<dim>16</dim>
					<dim>128</dim>
					<dim>128</dim>
				</port>
				<port id="1">
					<dim>1</dim>
					<dim>16</dim>
					<dim>128</dim>
					<dim>128</dim>
				</port>
			</input>
			<output>
				<port id="2" precision="FP16">
					<dim>1</dim>
					<dim>16</dim>
					<dim>128</dim>
					<dim>128</dim>
				</port>
			</output>
		</layer>
		<layer id="122" name="p_re_lu_6/mul" type="Multiply" version="opset1">
			<input>
				<port id="0">
					<dim>1</dim>
					<dim>16</dim>
					<dim>1</dim>
					<dim>1</dim>
				</port>
				<port id="1">
					<dim>1</dim>
					<dim>16</dim>
					<dim>128</dim>
					<dim>128</dim>
				</port>
			</input>
			<output>
				<port id="2" precision="FP16">
					<dim>1</dim>
					<dim>16</dim>
					<dim>128</dim>
					<dim>128</dim>
				</port>
			</output>
		</layer>
		<layer id="123" name="p_re_lu_6/Maximum" type="Maximum" version="opset1">
			<input>
				<port id="0">
					<dim>1</dim>
					<dim>16</dim>
					<dim>128</dim>
					<dim>128</dim>
				</port>
				<port id="1">
					<dim>1</dim>
					<dim>16</dim>
					<dim>128</dim>
					<dim>128</dim>
				</port>
			</input>
			<output>
				<port id="2" precision="FP16">
					<dim>1</dim>
					<dim>16</dim>
					<dim>128</dim>
					<dim>128</dim>
				</port>
			</output>
		</layer>
		<layer id="124" name="p_re_lu_7/p_re_lu_7/Alpha/read/Output_0/Data_/copy_const" type="Const" version="opset1">
			<data element_type="f16" offset="23520" shape="1,8,1,1" size="16"/>
			<output>
				<port id="1" precision="FP16">
					<dim>1</dim>
					<dim>8</dim>
					<dim>1</dim>
					<dim>1</dim>
				</port>
			</output>
		</layer>
		<layer id="125" name="conv2d_7/Kernel/read/Output_0/Data__const" type="Const" version="opset1">
			<data element_type="f16" offset="23536" shape="8,16,1,1" size="256"/>
			<output>
				<port id="1" precision="FP16">
					<dim>8</dim>
					<dim>16</dim>
					<dim>1</dim>
					<dim>1</dim>
				</port>
			</output>
		</layer>
		<layer id="126" name="conv2d_7/conv2d" type="Convolution" version="opset1">
			<data auto_pad="valid" dilations="1,1" output_padding="0,0" pads_begin="0,0" pads_end="0,0" strides="1,1"/>
			<input>
				<port id="0">
					<dim>1</dim>
					<dim>16</dim>
					<dim>128</dim>
					<dim>128</dim>
				</port>
				<port id="1">
					<dim>8</dim>
					<dim>16</dim>
					<dim>1</dim>
					<dim>1</dim>
				</port>
			</input>
			<output>
				<port id="2" precision="FP16">
					<dim>1</dim>
					<dim>8</dim>
					<dim>128</dim>
					<dim>128</dim>
				</port>
			</output>
		</layer>
		<layer id="127" name="conv2d_7/Bias/read/Output_0/Data_/copy_const" type="Const" version="opset1">
			<data element_type="f16" offset="23792" shape="1,8,1,1" size="16"/>
			<output>
				<port id="1" precision="FP16">
					<dim>1</dim>
					<dim>8</dim>
					<dim>1</dim>
					<dim>1</dim>
				</port>
			</output>
		</layer>
		<layer id="128" name="conv2d_7" type="Add" version="opset1">
			<input>
				<port id="0">
					<dim>1</dim>
					<dim>8</dim>
					<dim>128</dim>
					<dim>128</dim>
				</port>
				<port id="1">
					<dim>1</dim>
					<dim>8</dim>
					<dim>1</dim>
					<dim>1</dim>
				</port>
			</input>
			<output>
				<port id="2" precision="FP16">
					<dim>1</dim>
					<dim>8</dim>
					<dim>128</dim>
					<dim>128</dim>
				</port>
			</output>
		</layer>
		<layer id="129" name="p_re_lu_7/mul" type="Multiply" version="opset1">
			<input>
				<port id="0">
					<dim>1</dim>
					<dim>8</dim>
					<dim>1</dim>
					<dim>1</dim>
				</port>
				<port id="1">
					<dim>1</dim>
					<dim>8</dim>
					<dim>128</dim>
					<dim>128</dim>
				</port>
			</input>
			<output>
				<port id="2" precision="FP16">
					<dim>1</dim>
					<dim>8</dim>
					<dim>128</dim>
					<dim>128</dim>
				</port>
			</output>
		</layer>
		<layer id="130" name="p_re_lu_7/Maximum" type="Maximum" version="opset1">
			<input>
				<port id="0">
					<dim>1</dim>
					<dim>8</dim>
					<dim>128</dim>
					<dim>128</dim>
				</port>
				<port id="1">
					<dim>1</dim>
					<dim>8</dim>
					<dim>128</dim>
					<dim>128</dim>
				</port>
			</input>
			<output>
				<port id="2" precision="FP16">
					<dim>1</dim>
					<dim>8</dim>
					<dim>128</dim>
					<dim>128</dim>
				</port>
			</output>
		</layer>
		<layer id="131" name="3854538548_const" type="Const" version="opset1">
			<data element_type="f16" offset="23808" shape="8,1,1,3,3" size="144"/>
			<output>
				<port id="1" precision="FP16">
					<dim>8</dim>
					<dim>1</dim>
					<dim>1</dim>
					<dim>3</dim>
					<dim>3</dim>
				</port>
			</output>
		</layer>
		<layer id="132" name="depthwise_conv2d_3/depthwise_conv2d" type="GroupConvolution" version="opset1">
			<data auto_pad="same_upper" dilations="1,1" output_padding="0,0" pads_begin="0,0" pads_end="0,0" strides="1,1"/>
			<input>
				<port id="0">
					<dim>1</dim>
					<dim>8</dim>
					<dim>128</dim>
					<dim>128</dim>
				</port>
				<port id="1">
					<dim>8</dim>
					<dim>1</dim>
					<dim>1</dim>
					<dim>3</dim>
					<dim>3</dim>
				</port>
			</input>
			<output>
				<port id="2" precision="FP16">
					<dim>1</dim>
					<dim>8</dim>
					<dim>128</dim>
					<dim>128</dim>
				</port>
			</output>
		</layer>
		<layer id="133" name="depthwise_conv2d_3/Bias/read/Output_0/Data_/copy_const" type="Const" version="opset1">
			<data element_type="f16" offset="21776" shape="1,8,1,1" size="16"/>
			<output>
				<port id="1" precision="FP16">
					<dim>1</dim>
					<dim>8</dim>
					<dim>1</dim>
					<dim>1</dim>
				</port>
			</output>
		</layer>
		<layer id="134" name="depthwise_conv2d_3" type="Add" version="opset1">
			<input>
				<port id="0">
					<dim>1</dim>
					<dim>8</dim>
					<dim>128</dim>
					<dim>128</dim>
				</port>
				<port id="1">
					<dim>1</dim>
					<dim>8</dim>
					<dim>1</dim>
					<dim>1</dim>
				</port>
			</input>
			<output>
				<port id="2" precision="FP16">
					<dim>1</dim>
					<dim>8</dim>
					<dim>128</dim>
					<dim>128</dim>
				</port>
			</output>
		</layer>
		<layer id="135" name="conv2d_8/Kernel/read/Output_0/Data__const" type="Const" version="opset1">
			<data element_type="f16" offset="23952" shape="16,8,1,1" size="256"/>
			<output>
				<port id="1" precision="FP16">
					<dim>16</dim>
					<dim>8</dim>
					<dim>1</dim>
					<dim>1</dim>
				</port>
			</output>
		</layer>
		<layer id="136" name="conv2d_8/conv2d" type="Convolution" version="opset1">
			<data auto_pad="valid" dilations="1,1" output_padding="0,0" pads_begin="0,0" pads_end="0,0" strides="1,1"/>
			<input>
				<port id="0">
					<dim>1</dim>
					<dim>8</dim>
					<dim>128</dim>
					<dim>128</dim>
				</port>
				<port id="1">
					<dim>16</dim>
					<dim>8</dim>
					<dim>1</dim>
					<dim>1</dim>
				</port>
			</input>
			<output>
				<port id="2" precision="FP16">
					<dim>1</dim>
					<dim>16</dim>
					<dim>128</dim>
					<dim>128</dim>
				</port>
			</output>
		</layer>
		<layer id="137" name="conv2d_8/Bias/read/Output_0/Data_/copy_const" type="Const" version="opset1">
			<data element_type="f16" offset="24208" shape="1,16,1,1" size="32"/>
			<output>
				<port id="1" precision="FP16">
					<dim>1</dim>
					<dim>16</dim>
					<dim>1</dim>
					<dim>1</dim>
				</port>
			</output>
		</layer>
		<layer id="138" name="conv2d_8" type="Add" version="opset1">
			<input>
				<port id="0">
					<dim>1</dim>
					<dim>16</dim>
					<dim>128</dim>
					<dim>128</dim>
				</port>
				<port id="1">
					<dim>1</dim>
					<dim>16</dim>
					<dim>1</dim>
					<dim>1</dim>
				</port>
			</input>
			<output>
				<port id="2" precision="FP16">
					<dim>1</dim>
					<dim>16</dim>
					<dim>128</dim>
					<dim>128</dim>
				</port>
			</output>
		</layer>
		<layer id="139" name="add_3" type="Add" version="opset1">
			<input>
				<port id="0">
					<dim>1</dim>
					<dim>16</dim>
					<dim>128</dim>
					<dim>128</dim>
				</port>
				<port id="1">
					<dim>1</dim>
					<dim>16</dim>
					<dim>128</dim>
					<dim>128</dim>
				</port>
			</input>
			<output>
				<port id="2" precision="FP16">
					<dim>1</dim>
					<dim>16</dim>
					<dim>128</dim>
					<dim>128</dim>
				</port>
			</output>
		</layer>
		<layer id="140" name="p_re_lu_8/mul" type="Multiply" version="opset1">
			<input>
				<port id="0">
					<dim>1</dim>
					<dim>16</dim>
					<dim>1</dim>
					<dim>1</dim>
				</port>
				<port id="1">
					<dim>1</dim>
					<dim>16</dim>
					<dim>128</dim>
					<dim>128</dim>
				</port>
			</input>
			<output>
				<port id="2" precision="FP16">
					<dim>1</dim>
					<dim>16</dim>
					<dim>128</dim>
					<dim>128</dim>
				</port>
			</output>
		</layer>
		<layer id="141" name="p_re_lu_8/Maximum" type="Maximum" version="opset1">
			<input>
				<port id="0">
					<dim>1</dim>
					<dim>16</dim>
					<dim>128</dim>
					<dim>128</dim>
				</port>
				<port id="1">
					<dim>1</dim>
					<dim>16</dim>
					<dim>128</dim>
					<dim>128</dim>
				</port>
			</input>
			<output>
				<port id="2" precision="FP16">
					<dim>1</dim>
					<dim>16</dim>
					<dim>128</dim>
					<dim>128</dim>
				</port>
			</output>
		</layer>
		<layer id="142" name="p_re_lu_9/p_re_lu_9/Alpha/read/Output_0/Data_/copy_const" type="Const" version="opset1">
			<data element_type="f16" offset="24240" shape="1,8,1,1" size="16"/>
			<output>
				<port id="1" precision="FP16">
					<dim>1</dim>
					<dim>8</dim>
					<dim>1</dim>
					<dim>1</dim>
				</port>
			</output>
		</layer>
		<layer id="143" name="conv2d_9/Kernel/read/Output_0/Data__const" type="Const" version="opset1">
			<data element_type="f16" offset="24256" shape="8,16,1,1" size="256"/>
			<output>
				<port id="1" precision="FP16">
					<dim>8</dim>
					<dim>16</dim>
					<dim>1</dim>
					<dim>1</dim>
				</port>
			</output>
		</layer>
		<layer id="144" name="conv2d_9/conv2d" type="Convolution" version="opset1">
			<data auto_pad="valid" dilations="1,1" output_padding="0,0" pads_begin="0,0" pads_end="0,0" strides="1,1"/>
			<input>
				<port id="0">
					<dim>1</dim>
					<dim>16</dim>
					<dim>128</dim>
					<dim>128</dim>
				</port>
				<port id="1">
					<dim>8</dim>
					<dim>16</dim>
					<dim>1</dim>
					<dim>1</dim>
				</port>
			</input>
			<output>
				<port id="2" precision="FP16">
					<dim>1</dim>
					<dim>8</dim>
					<dim>128</dim>
					<dim>128</dim>
				</port>
			</output>
		</layer>
		<layer id="145" name="conv2d_9/Bias/read/Output_0/Data_/copy_const" type="Const" version="opset1">
			<data element_type="f16" offset="24512" shape="1,8,1,1" size="16"/>
			<output>
				<port id="1" precision="FP16">
					<dim>1</dim>
					<dim>8</dim>
					<dim>1</dim>
					<dim>1</dim>
				</port>
			</output>
		</layer>
		<layer id="146" name="conv2d_9" type="Add" version="opset1">
			<input>
				<port id="0">
					<dim>1</dim>
					<dim>8</dim>
					<dim>128</dim>
					<dim>128</dim>
				</port>
				<port id="1">
					<dim>1</dim>
					<dim>8</dim>
					<dim>1</dim>
					<dim>1</dim>
				</port>
			</input>
			<output>
				<port id="2" precision="FP16">
					<dim>1</dim>
					<dim>8</dim>
					<dim>128</dim>
					<dim>128</dim>
				</port>
			</output>
		</layer>
		<layer id="147" name="p_re_lu_9/mul" type="Multiply" version="opset1">
			<input>
				<port id="0">
					<dim>1</dim>
					<dim>8</dim>
					<dim>1</dim>
					<dim>1</dim>
				</port>
				<port id="1">
					<dim>1</dim>
					<dim>8</dim>
					<dim>128</dim>
					<dim>128</dim>
				</port>
			</input>
			<output>
				<port id="2" precision="FP16">
					<dim>1</dim>
					<dim>8</dim>
					<dim>128</dim>
					<dim>128</dim>
				</port>
			</output>
		</layer>
		<layer id="148" name="p_re_lu_9/Maximum" type="Maximum" version="opset1">
			<input>
				<port id="0">
					<dim>1</dim>
					<dim>8</dim>
					<dim>128</dim>
					<dim>128</dim>
				</port>
				<port id="1">
					<dim>1</dim>
					<dim>8</dim>
					<dim>128</dim>
					<dim>128</dim>
				</port>
			</input>
			<output>
				<port id="2" precision="FP16">
					<dim>1</dim>
					<dim>8</dim>
					<dim>128</dim>
					<dim>128</dim>
				</port>
			</output>
		</layer>
		<layer id="149" name="3856538568_const" type="Const" version="opset1">
			<data element_type="f16" offset="24528" shape="8,1,1,3,3" size="144"/>
			<output>
				<port id="1" precision="FP16">
					<dim>8</dim>
					<dim>1</dim>
					<dim>1</dim>
					<dim>3</dim>
					<dim>3</dim>
				</port>
			</output>
		</layer>
		<layer id="150" name="depthwise_conv2d_4/depthwise_conv2d" type="GroupConvolution" version="opset1">
			<data auto_pad="same_upper" dilations="1,1" output_padding="0,0" pads_begin="0,0" pads_end="0,0" strides="1,1"/>
			<input>
				<port id="0">
					<dim>1</dim>
					<dim>8</dim>
					<dim>128</dim>
					<dim>128</dim>
				</port>
				<port id="1">
					<dim>8</dim>
					<dim>1</dim>
					<dim>1</dim>
					<dim>3</dim>
					<dim>3</dim>
				</port>
			</input>
			<output>
				<port id="2" precision="FP16">
					<dim>1</dim>
					<dim>8</dim>
					<dim>128</dim>
					<dim>128</dim>
				</port>
			</output>
		</layer>
		<layer id="151" name="depthwise_conv2d_4/Bias/read/Output_0/Data_/copy_const" type="Const" version="opset1">
			<data element_type="f16" offset="21776" shape="1,8,1,1" size="16"/>
			<output>
				<port id="1" precision="FP16">
					<dim>1</dim>
					<dim>8</dim>
					<dim>1</dim>
					<dim>1</dim>
				</port>
			</output>
		</layer>
		<layer id="152" name="depthwise_conv2d_4" type="Add" version="opset1">
			<input>
				<port id="0">
					<dim>1</dim>
					<dim>8</dim>
					<dim>128</dim>
					<dim>128</dim>
				</port>
				<port id="1">
					<dim>1</dim>
					<dim>8</dim>
					<dim>1</dim>
					<dim>1</dim>
				</port>
			</input>
			<output>
				<port id="2" precision="FP16">
					<dim>1</dim>
					<dim>8</dim>
					<dim>128</dim>
					<dim>128</dim>
				</port>
			</output>
		</layer>
		<layer id="153" name="conv2d_10/Kernel/read/Output_0/Data__const" type="Const" version="opset1">
			<data element_type="f16" offset="24672" shape="16,8,1,1" size="256"/>
			<output>
				<port id="1" precision="FP16">
					<dim>16</dim>
					<dim>8</dim>
					<dim>1</dim>
					<dim>1</dim>
				</port>
			</output>
		</layer>
		<layer id="154" name="conv2d_10/conv2d" type="Convolution" version="opset1">
			<data auto_pad="valid" dilations="1,1" output_padding="0,0" pads_begin="0,0" pads_end="0,0" strides="1,1"/>
			<input>
				<port id="0">
					<dim>1</dim>
					<dim>8</dim>
					<dim>128</dim>
					<dim>128</dim>
				</port>
				<port id="1">
					<dim>16</dim>
					<dim>8</dim>
					<dim>1</dim>
					<dim>1</dim>
				</port>
			</input>
			<output>
				<port id="2" precision="FP16">
					<dim>1</dim>
					<dim>16</dim>
					<dim>128</dim>
					<dim>128</dim>
				</port>
			</output>
		</layer>
		<layer id="155" name="conv2d_10/Bias/read/Output_0/Data_/copy_const" type="Const" version="opset1">
			<data element_type="f16" offset="24928" shape="1,16,1,1" size="32"/>
			<output>
				<port id="1" precision="FP16">
					<dim>1</dim>
					<dim>16</dim>
					<dim>1</dim>
					<dim>1</dim>
				</port>
			</output>
		</layer>
		<layer id="156" name="conv2d_10" type="Add" version="opset1">
			<input>
				<port id="0">
					<dim>1</dim>
					<dim>16</dim>
					<dim>128</dim>
					<dim>128</dim>
				</port>
				<port id="1">
					<dim>1</dim>
					<dim>16</dim>
					<dim>1</dim>
					<dim>1</dim>
				</port>
			</input>
			<output>
				<port id="2" precision="FP16">
					<dim>1</dim>
					<dim>16</dim>
					<dim>128</dim>
					<dim>128</dim>
				</port>
			</output>
		</layer>
		<layer id="157" name="add_4" type="Add" version="opset1">
			<input>
				<port id="0">
					<dim>1</dim>
					<dim>16</dim>
					<dim>128</dim>
					<dim>128</dim>
				</port>
				<port id="1">
					<dim>1</dim>
					<dim>16</dim>
					<dim>128</dim>
					<dim>128</dim>
				</port>
			</input>
			<output>
				<port id="2" precision="FP16">
					<dim>1</dim>
					<dim>16</dim>
					<dim>128</dim>
					<dim>128</dim>
				</port>
			</output>
		</layer>
		<layer id="158" name="p_re_lu_10/mul" type="Multiply" version="opset1">
			<input>
				<port id="0">
					<dim>1</dim>
					<dim>16</dim>
					<dim>1</dim>
					<dim>1</dim>
				</port>
				<port id="1">
					<dim>1</dim>
					<dim>16</dim>
					<dim>128</dim>
					<dim>128</dim>
				</port>
			</input>
			<output>
				<port id="2" precision="FP16">
					<dim>1</dim>
					<dim>16</dim>
					<dim>128</dim>
					<dim>128</dim>
				</port>
			</output>
		</layer>
		<layer id="159" name="p_re_lu_10/Maximum" type="Maximum" version="opset1">
			<input>
				<port id="0">
					<dim>1</dim>
					<dim>16</dim>
					<dim>128</dim>
					<dim>128</dim>
				</port>
				<port id="1">
					<dim>1</dim>
					<dim>16</dim>
					<dim>128</dim>
					<dim>128</dim>
				</port>
			</input>
			<output>
				<port id="2" precision="FP16">
					<dim>1</dim>
					<dim>16</dim>
					<dim>128</dim>
					<dim>128</dim>
				</port>
			</output>
		</layer>
		<layer id="160" name="p_re_lu_11/p_re_lu_11/Alpha/read/Output_0/Data_/copy_const" type="Const" version="opset1">
			<data element_type="f16" offset="24960" shape="1,8,1,1" size="16"/>
			<output>
				<port id="1" precision="FP16">
					<dim>1</dim>
					<dim>8</dim>
					<dim>1</dim>
					<dim>1</dim>
				</port>
			</output>
		</layer>
		<layer id="161" name="conv2d_11/Kernel/read/Output_0/Data__const" type="Const" version="opset1">
			<data element_type="f16" offset="24976" shape="8,16,1,1" size="256"/>
			<output>
				<port id="1" precision="FP16">
					<dim>8</dim>
					<dim>16</dim>
					<dim>1</dim>
					<dim>1</dim>
				</port>
			</output>
		</layer>
		<layer id="162" name="conv2d_11/conv2d" type="Convolution" version="opset1">
			<data auto_pad="valid" dilations="1,1" output_padding="0,0" pads_begin="0,0" pads_end="0,0" strides="1,1"/>
			<input>
				<port id="0">
					<dim>1</dim>
					<dim>16</dim>
					<dim>128</dim>
					<dim>128</dim>
				</port>
				<port id="1">
					<dim>8</dim>
					<dim>16</dim>
					<dim>1</dim>
					<dim>1</dim>
				</port>
			</input>
			<output>
				<port id="2" precision="FP16">
					<dim>1</dim>
					<dim>8</dim>
					<dim>128</dim>
					<dim>128</dim>
				</port>
			</output>
		</layer>
		<layer id="163" name="conv2d_11/Bias/read/Output_0/Data_/copy_const" type="Const" version="opset1">
			<data element_type="f16" offset="25232" shape="1,8,1,1" size="16"/>
			<output>
				<port id="1" precision="FP16">
					<dim>1</dim>
					<dim>8</dim>
					<dim>1</dim>
					<dim>1</dim>
				</port>
			</output>
		</layer>
		<layer id="164" name="conv2d_11" type="Add" version="opset1">
			<input>
				<port id="0">
					<dim>1</dim>
					<dim>8</dim>
					<dim>128</dim>
					<dim>128</dim>
				</port>
				<port id="1">
					<dim>1</dim>
					<dim>8</dim>
					<dim>1</dim>
					<dim>1</dim>
				</port>
			</input>
			<output>
				<port id="2" precision="FP16">
					<dim>1</dim>
					<dim>8</dim>
					<dim>128</dim>
					<dim>128</dim>
				</port>
			</output>
		</layer>
		<layer id="165" name="p_re_lu_11/mul" type="Multiply" version="opset1">
			<input>
				<port id="0">
					<dim>1</dim>
					<dim>8</dim>
					<dim>1</dim>
					<dim>1</dim>
				</port>
				<port id="1">
					<dim>1</dim>
					<dim>8</dim>
					<dim>128</dim>
					<dim>128</dim>
				</port>
			</input>
			<output>
				<port id="2" precision="FP16">
					<dim>1</dim>
					<dim>8</dim>
					<dim>128</dim>
					<dim>128</dim>
				</port>
			</output>
		</layer>
		<layer id="166" name="p_re_lu_11/Maximum" type="Maximum" version="opset1">
			<input>
				<port id="0">
					<dim>1</dim>
					<dim>8</dim>
					<dim>128</dim>
					<dim>128</dim>
				</port>
				<port id="1">
					<dim>1</dim>
					<dim>8</dim>
					<dim>128</dim>
					<dim>128</dim>
				</port>
			</input>
			<output>
				<port id="2" precision="FP16">
					<dim>1</dim>
					<dim>8</dim>
					<dim>128</dim>
					<dim>128</dim>
				</port>
			</output>
		</layer>
		<layer id="167" name="3859738600_const" type="Const" version="opset1">
			<data element_type="f16" offset="25248" shape="8,1,1,3,3" size="144"/>
			<output>
				<port id="1" precision="FP16">
					<dim>8</dim>
					<dim>1</dim>
					<dim>1</dim>
					<dim>3</dim>
					<dim>3</dim>
				</port>
			</output>
		</layer>
		<layer id="168" name="depthwise_conv2d_5/depthwise_conv2d" type="GroupConvolution" version="opset1">
			<data auto_pad="same_upper" dilations="1,1" output_padding="0,0" pads_begin="0,0" pads_end="0,0" strides="1,1"/>
			<input>
				<port id="0">
					<dim>1</dim>
					<dim>8</dim>
					<dim>128</dim>
					<dim>128</dim>
				</port>
				<port id="1">
					<dim>8</dim>
					<dim>1</dim>
					<dim>1</dim>
					<dim>3</dim>
					<dim>3</dim>
				</port>
			</input>
			<output>
				<port id="2" precision="FP16">
					<dim>1</dim>
					<dim>8</dim>
					<dim>128</dim>
					<dim>128</dim>
				</port>
			</output>
		</layer>
		<layer id="169" name="depthwise_conv2d_5/Bias/read/Output_0/Data_/copy_const" type="Const" version="opset1">
			<data element_type="f16" offset="21776" shape="1,8,1,1" size="16"/>
			<output>
				<port id="1" precision="FP16">
					<dim>1</dim>
					<dim>8</dim>
					<dim>1</dim>
					<dim>1</dim>
				</port>
			</output>
		</layer>
		<layer id="170" name="depthwise_conv2d_5" type="Add" version="opset1">
			<input>
				<port id="0">
					<dim>1</dim>
					<dim>8</dim>
					<dim>128</dim>
					<dim>128</dim>
				</port>
				<port id="1">
					<dim>1</dim>
					<dim>8</dim>
					<dim>1</dim>
					<dim>1</dim>
				</port>
			</input>
			<output>
				<port id="2" precision="FP16">
					<dim>1</dim>
					<dim>8</dim>
					<dim>128</dim>
					<dim>128</dim>
				</port>
			</output>
		</layer>
		<layer id="171" name="conv2d_12/Kernel/read/Output_0/Data__const" type="Const" version="opset1">
			<data element_type="f16" offset="25392" shape="16,8,1,1" size="256"/>
			<output>
				<port id="1" precision="FP16">
					<dim>16</dim>
					<dim>8</dim>
					<dim>1</dim>
					<dim>1</dim>
				</port>
			</output>
		</layer>
		<layer id="172" name="conv2d_12/conv2d" type="Convolution" version="opset1">
			<data auto_pad="valid" dilations="1,1" output_padding="0,0" pads_begin="0,0" pads_end="0,0" strides="1,1"/>
			<input>
				<port id="0">
					<dim>1</dim>
					<dim>8</dim>
					<dim>128</dim>
					<dim>128</dim>
				</port>
				<port id="1">
					<dim>16</dim>
					<dim>8</dim>
					<dim>1</dim>
					<dim>1</dim>
				</port>
			</input>
			<output>
				<port id="2" precision="FP16">
					<dim>1</dim>
					<dim>16</dim>
					<dim>128</dim>
					<dim>128</dim>
				</port>
			</output>
		</layer>
		<layer id="173" name="conv2d_12/Bias/read/Output_0/Data_/copy_const" type="Const" version="opset1">
			<data element_type="f16" offset="25648" shape="1,16,1,1" size="32"/>
			<output>
				<port id="1" precision="FP16">
					<dim>1</dim>
					<dim>16</dim>
					<dim>1</dim>
					<dim>1</dim>
				</port>
			</output>
		</layer>
		<layer id="174" name="conv2d_12" type="Add" version="opset1">
			<input>
				<port id="0">
					<dim>1</dim>
					<dim>16</dim>
					<dim>128</dim>
					<dim>128</dim>
				</port>
				<port id="1">
					<dim>1</dim>
					<dim>16</dim>
					<dim>1</dim>
					<dim>1</dim>
				</port>
			</input>
			<output>
				<port id="2" precision="FP16">
					<dim>1</dim>
					<dim>16</dim>
					<dim>128</dim>
					<dim>128</dim>
				</port>
			</output>
		</layer>
		<layer id="175" name="add_5" type="Add" version="opset1">
			<input>
				<port id="0">
					<dim>1</dim>
					<dim>16</dim>
					<dim>128</dim>
					<dim>128</dim>
				</port>
				<port id="1">
					<dim>1</dim>
					<dim>16</dim>
					<dim>128</dim>
					<dim>128</dim>
				</port>
			</input>
			<output>
				<port id="2" precision="FP16">
					<dim>1</dim>
					<dim>16</dim>
					<dim>128</dim>
					<dim>128</dim>
				</port>
			</output>
		</layer>
		<layer id="176" name="p_re_lu_12/mul" type="Multiply" version="opset1">
			<input>
				<port id="0">
					<dim>1</dim>
					<dim>16</dim>
					<dim>1</dim>
					<dim>1</dim>
				</port>
				<port id="1">
					<dim>1</dim>
					<dim>16</dim>
					<dim>128</dim>
					<dim>128</dim>
				</port>
			</input>
			<output>
				<port id="2" precision="FP16">
					<dim>1</dim>
					<dim>16</dim>
					<dim>128</dim>
					<dim>128</dim>
				</port>
			</output>
		</layer>
		<layer id="177" name="p_re_lu_12/Maximum" type="Maximum" version="opset1">
			<input>
				<port id="0">
					<dim>1</dim>
					<dim>16</dim>
					<dim>128</dim>
					<dim>128</dim>
				</port>
				<port id="1">
					<dim>1</dim>
					<dim>16</dim>
					<dim>128</dim>
					<dim>128</dim>
				</port>
			</input>
			<output>
				<port id="2" precision="FP16">
					<dim>1</dim>
					<dim>16</dim>
					<dim>128</dim>
					<dim>128</dim>
				</port>
			</output>
		</layer>
		<layer id="178" name="p_re_lu_13/p_re_lu_13/Alpha/read/Output_0/Data_/copy_const" type="Const" version="opset1">
			<data element_type="f16" offset="25680" shape="1,8,1,1" size="16"/>
			<output>
				<port id="1" precision="FP16">
					<dim>1</dim>
					<dim>8</dim>
					<dim>1</dim>
					<dim>1</dim>
				</port>
			</output>
		</layer>
		<layer id="179" name="conv2d_13/Kernel/read/Output_0/Data__const" type="Const" version="opset1">
			<data element_type="f16" offset="25696" shape="8,16,1,1" size="256"/>
			<output>
				<port id="1" precision="FP16">
					<dim>8</dim>
					<dim>16</dim>
					<dim>1</dim>
					<dim>1</dim>
				</port>
			</output>
		</layer>
		<layer id="180" name="conv2d_13/conv2d" type="Convolution" version="opset1">
			<data auto_pad="valid" dilations="1,1" output_padding="0,0" pads_begin="0,0" pads_end="0,0" strides="1,1"/>
			<input>
				<port id="0">
					<dim>1</dim>
					<dim>16</dim>
					<dim>128</dim>
					<dim>128</dim>
				</port>
				<port id="1">
					<dim>8</dim>
					<dim>16</dim>
					<dim>1</dim>
					<dim>1</dim>
				</port>
			</input>
			<output>
				<port id="2" precision="FP16">
					<dim>1</dim>
					<dim>8</dim>
					<dim>128</dim>
					<dim>128</dim>
				</port>
			</output>
		</layer>
		<layer id="181" name="conv2d_13/Bias/read/Output_0/Data_/copy_const" type="Const" version="opset1">
			<data element_type="f16" offset="25952" shape="1,8,1,1" size="16"/>
			<output>
				<port id="1" precision="FP16">
					<dim>1</dim>
					<dim>8</dim>
					<dim>1</dim>
					<dim>1</dim>
				</port>
			</output>
		</layer>
		<layer id="182" name="conv2d_13" type="Add" version="opset1">
			<input>
				<port id="0">
					<dim>1</dim>
					<dim>8</dim>
					<dim>128</dim>
					<dim>128</dim>
				</port>
				<port id="1">
					<dim>1</dim>
					<dim>8</dim>
					<dim>1</dim>
					<dim>1</dim>
				</port>
			</input>
			<output>
				<port id="2" precision="FP16">
					<dim>1</dim>
					<dim>8</dim>
					<dim>128</dim>
					<dim>128</dim>
				</port>
			</output>
		</layer>
		<layer id="183" name="p_re_lu_13/mul" type="Multiply" version="opset1">
			<input>
				<port id="0">
					<dim>1</dim>
					<dim>8</dim>
					<dim>1</dim>
					<dim>1</dim>
				</port>
				<port id="1">
					<dim>1</dim>
					<dim>8</dim>
					<dim>128</dim>
					<dim>128</dim>
				</port>
			</input>
			<output>
				<port id="2" precision="FP16">
					<dim>1</dim>
					<dim>8</dim>
					<dim>128</dim>
					<dim>128</dim>
				</port>
			</output>
		</layer>
		<layer id="184" name="p_re_lu_13/Maximum" type="Maximum" version="opset1">
			<input>
				<port id="0">
					<dim>1</dim>
					<dim>8</dim>
					<dim>128</dim>
					<dim>128</dim>
				</port>
				<port id="1">
					<dim>1</dim>
					<dim>8</dim>
					<dim>128</dim>
					<dim>128</dim>
				</port>
			</input>
			<output>
				<port id="2" precision="FP16">
					<dim>1</dim>
					<dim>8</dim>
					<dim>128</dim>
					<dim>128</dim>
				</port>
			</output>
		</layer>
		<layer id="185" name="3863738640_const" type="Const" version="opset1">
			<data element_type="f16" offset="25968" shape="8,1,1,3,3" size="144"/>
			<output>
				<port id="1" precision="FP16">
					<dim>8</dim>
					<dim>1</dim>
					<dim>1</dim>
					<dim>3</dim>
					<dim>3</dim>
				</port>
			</output>
		</layer>
		<layer id="186" name="depthwise_conv2d_6/depthwise_conv2d" type="GroupConvolution" version="opset1">
			<data auto_pad="same_upper" dilations="1,1" output_padding="0,0" pads_begin="0,0" pads_end="0,0" strides="1,1"/>
			<input>
				<port id="0">
					<dim>1</dim>
					<dim>8</dim>
					<dim>128</dim>
					<dim>128</dim>
				</port>
				<port id="1">
					<dim>8</dim>
					<dim>1</dim>
					<dim>1</dim>
					<dim>3</dim>
					<dim>3</dim>
				</port>
			</input>
			<output>
				<port id="2" precision="FP16">
					<dim>1</dim>
					<dim>8</dim>
					<dim>128</dim>
					<dim>128</dim>
				</port>
			</output>
		</layer>
		<layer id="187" name="depthwise_conv2d_6/Bias/read/Output_0/Data_/copy_const" type="Const" version="opset1">
			<data element_type="f16" offset="21776" shape="1,8,1,1" size="16"/>
			<output>
				<port id="1" precision="FP16">
					<dim>1</dim>
					<dim>8</dim>
					<dim>1</dim>
					<dim>1</dim>
				</port>
			</output>
		</layer>
		<layer id="188" name="depthwise_conv2d_6" type="Add" version="opset1">
			<input>
				<port id="0">
					<dim>1</dim>
					<dim>8</dim>
					<dim>128</dim>
					<dim>128</dim>
				</port>
				<port id="1">
					<dim>1</dim>
					<dim>8</dim>
					<dim>1</dim>
					<dim>1</dim>
				</port>
			</input>
			<output>
				<port id="2" precision="FP16">
					<dim>1</dim>
					<dim>8</dim>
					<dim>128</dim>
					<dim>128</dim>
				</port>
			</output>
		</layer>
		<layer id="189" name="conv2d_14/Kernel/read/Output_0/Data__const" type="Const" version="opset1">
			<data element_type="f16" offset="26112" shape="16,8,1,1" size="256"/>
			<output>
				<port id="1" precision="FP16">
					<dim>16</dim>
					<dim>8</dim>
					<dim>1</dim>
					<dim>1</dim>
				</port>
			</output>
		</layer>
		<layer id="190" name="conv2d_14/conv2d" type="Convolution" version="opset1">
			<data auto_pad="valid" dilations="1,1" output_padding="0,0" pads_begin="0,0" pads_end="0,0" strides="1,1"/>
			<input>
				<port id="0">
					<dim>1</dim>
					<dim>8</dim>
					<dim>128</dim>
					<dim>128</dim>
				</port>
				<port id="1">
					<dim>16</dim>
					<dim>8</dim>
					<dim>1</dim>
					<dim>1</dim>
				</port>
			</input>
			<output>
				<port id="2" precision="FP16">
					<dim>1</dim>
					<dim>16</dim>
					<dim>128</dim>
					<dim>128</dim>
				</port>
			</output>
		</layer>
		<layer id="191" name="conv2d_14/Bias/read/Output_0/Data_/copy_const" type="Const" version="opset1">
			<data element_type="f16" offset="26368" shape="1,16,1,1" size="32"/>
			<output>
				<port id="1" precision="FP16">
					<dim>1</dim>
					<dim>16</dim>
					<dim>1</dim>
					<dim>1</dim>
				</port>
			</output>
		</layer>
		<layer id="192" name="conv2d_14" type="Add" version="opset1">
			<input>
				<port id="0">
					<dim>1</dim>
					<dim>16</dim>
					<dim>128</dim>
					<dim>128</dim>
				</port>
				<port id="1">
					<dim>1</dim>
					<dim>16</dim>
					<dim>1</dim>
					<dim>1</dim>
				</port>
			</input>
			<output>
				<port id="2" precision="FP16">
					<dim>1</dim>
					<dim>16</dim>
					<dim>128</dim>
					<dim>128</dim>
				</port>
			</output>
		</layer>
		<layer id="193" name="add_6" type="Add" version="opset1">
			<input>
				<port id="0">
					<dim>1</dim>
					<dim>16</dim>
					<dim>128</dim>
					<dim>128</dim>
				</port>
				<port id="1">
					<dim>1</dim>
					<dim>16</dim>
					<dim>128</dim>
					<dim>128</dim>
				</port>
			</input>
			<output>
				<port id="2" precision="FP16">
					<dim>1</dim>
					<dim>16</dim>
					<dim>128</dim>
					<dim>128</dim>
				</port>
			</output>
		</layer>
		<layer id="194" name="p_re_lu_14/mul" type="Multiply" version="opset1">
			<input>
				<port id="0">
					<dim>1</dim>
					<dim>16</dim>
					<dim>1</dim>
					<dim>1</dim>
				</port>
				<port id="1">
					<dim>1</dim>
					<dim>16</dim>
					<dim>128</dim>
					<dim>128</dim>
				</port>
			</input>
			<output>
				<port id="2" precision="FP16">
					<dim>1</dim>
					<dim>16</dim>
					<dim>128</dim>
					<dim>128</dim>
				</port>
			</output>
		</layer>
		<layer id="195" name="p_re_lu_14/Maximum" type="Maximum" version="opset1">
			<input>
				<port id="0">
					<dim>1</dim>
					<dim>16</dim>
					<dim>128</dim>
					<dim>128</dim>
				</port>
				<port id="1">
					<dim>1</dim>
					<dim>16</dim>
					<dim>128</dim>
					<dim>128</dim>
				</port>
			</input>
			<output>
				<port id="2" precision="FP16">
					<dim>1</dim>
					<dim>16</dim>
					<dim>128</dim>
					<dim>128</dim>
				</port>
			</output>
		</layer>
		<layer id="196" name="p_re_lu_15/p_re_lu_15/Alpha/read/Output_0/Data_/copy_const" type="Const" version="opset1">
			<data element_type="f16" offset="26400" shape="1,8,1,1" size="16"/>
			<output>
				<port id="1" precision="FP16">
					<dim>1</dim>
					<dim>8</dim>
					<dim>1</dim>
					<dim>1</dim>
				</port>
			</output>
		</layer>
		<layer id="197" name="conv2d_15/Kernel/read/Output_0/Data__const" type="Const" version="opset1">
			<data element_type="f16" offset="26416" shape="8,16,1,1" size="256"/>
			<output>
				<port id="1" precision="FP16">
					<dim>8</dim>
					<dim>16</dim>
					<dim>1</dim>
					<dim>1</dim>
				</port>
			</output>
		</layer>
		<layer id="198" name="conv2d_15/conv2d" type="Convolution" version="opset1">
			<data auto_pad="valid" dilations="1,1" output_padding="0,0" pads_begin="0,0" pads_end="0,0" strides="1,1"/>
			<input>
				<port id="0">
					<dim>1</dim>
					<dim>16</dim>
					<dim>128</dim>
					<dim>128</dim>
				</port>
				<port id="1">
					<dim>8</dim>
					<dim>16</dim>
					<dim>1</dim>
					<dim>1</dim>
				</port>
			</input>
			<output>
				<port id="2" precision="FP16">
					<dim>1</dim>
					<dim>8</dim>
					<dim>128</dim>
					<dim>128</dim>
				</port>
			</output>
		</layer>
		<layer id="199" name="conv2d_15/Bias/read/Output_0/Data_/copy_const" type="Const" version="opset1">
			<data element_type="f16" offset="26672" shape="1,8,1,1" size="16"/>
			<output>
				<port id="1" precision="FP16">
					<dim>1</dim>
					<dim>8</dim>
					<dim>1</dim>
					<dim>1</dim>
				</port>
			</output>
		</layer>
		<layer id="200" name="conv2d_15" type="Add" version="opset1">
			<input>
				<port id="0">
					<dim>1</dim>
					<dim>8</dim>
					<dim>128</dim>
					<dim>128</dim>
				</port>
				<port id="1">
					<dim>1</dim>
					<dim>8</dim>
					<dim>1</dim>
					<dim>1</dim>
				</port>
			</input>
			<output>
				<port id="2" precision="FP16">
					<dim>1</dim>
					<dim>8</dim>
					<dim>128</dim>
					<dim>128</dim>
				</port>
			</output>
		</layer>
		<layer id="201" name="p_re_lu_15/mul" type="Multiply" version="opset1">
			<input>
				<port id="0">
					<dim>1</dim>
					<dim>8</dim>
					<dim>1</dim>
					<dim>1</dim>
				</port>
				<port id="1">
					<dim>1</dim>
					<dim>8</dim>
					<dim>128</dim>
					<dim>128</dim>
				</port>
			</input>
			<output>
				<port id="2" precision="FP16">
					<dim>1</dim>
					<dim>8</dim>
					<dim>128</dim>
					<dim>128</dim>
				</port>
			</output>
		</layer>
		<layer id="202" name="p_re_lu_15/Maximum" type="Maximum" version="opset1">
			<input>
				<port id="0">
					<dim>1</dim>
					<dim>8</dim>
					<dim>128</dim>
					<dim>128</dim>
				</port>
				<port id="1">
					<dim>1</dim>
					<dim>8</dim>
					<dim>128</dim>
					<dim>128</dim>
				</port>
			</input>
			<output>
				<port id="2" precision="FP16">
					<dim>1</dim>
					<dim>8</dim>
					<dim>128</dim>
					<dim>128</dim>
				</port>
			</output>
		</layer>
		<layer id="203" name="3855738560_const" type="Const" version="opset1">
			<data element_type="f16" offset="26688" shape="8,1,1,3,3" size="144"/>
			<output>
				<port id="1" precision="FP16">
					<dim>8</dim>
					<dim>1</dim>
					<dim>1</dim>
					<dim>3</dim>
					<dim>3</dim>
				</port>
			</output>
		</layer>
		<layer id="204" name="depthwise_conv2d_7/depthwise_conv2d" type="GroupConvolution" version="opset1">
			<data auto_pad="same_upper" dilations="1,1" output_padding="0,0" pads_begin="0,0" pads_end="0,0" strides="1,1"/>
			<input>
				<port id="0">
					<dim>1</dim>
					<dim>8</dim>
					<dim>128</dim>
					<dim>128</dim>
				</port>
				<port id="1">
					<dim>8</dim>
					<dim>1</dim>
					<dim>1</dim>
					<dim>3</dim>
					<dim>3</dim>
				</port>
			</input>
			<output>
				<port id="2" precision="FP16">
					<dim>1</dim>
					<dim>8</dim>
					<dim>128</dim>
					<dim>128</dim>
				</port>
			</output>
		</layer>
		<layer id="205" name="depthwise_conv2d_7/Bias/read/Output_0/Data_/copy_const" type="Const" version="opset1">
			<data element_type="f16" offset="21776" shape="1,8,1,1" size="16"/>
			<output>
				<port id="1" precision="FP16">
					<dim>1</dim>
					<dim>8</dim>
					<dim>1</dim>
					<dim>1</dim>
				</port>
			</output>
		</layer>
		<layer id="206" name="depthwise_conv2d_7" type="Add" version="opset1">
			<input>
				<port id="0">
					<dim>1</dim>
					<dim>8</dim>
					<dim>128</dim>
					<dim>128</dim>
				</port>
				<port id="1">
					<dim>1</dim>
					<dim>8</dim>
					<dim>1</dim>
					<dim>1</dim>
				</port>
			</input>
			<output>
				<port id="2" precision="FP16">
					<dim>1</dim>
					<dim>8</dim>
					<dim>128</dim>
					<dim>128</dim>
				</port>
			</output>
		</layer>
		<layer id="207" name="conv2d_16/Kernel/read/Output_0/Data__const" type="Const" version="opset1">
			<data element_type="f16" offset="26832" shape="16,8,1,1" size="256"/>
			<output>
				<port id="1" precision="FP16">
					<dim>16</dim>
					<dim>8</dim>
					<dim>1</dim>
					<dim>1</dim>
				</port>
			</output>
		</layer>
		<layer id="208" name="conv2d_16/conv2d" type="Convolution" version="opset1">
			<data auto_pad="valid" dilations="1,1" output_padding="0,0" pads_begin="0,0" pads_end="0,0" strides="1,1"/>
			<input>
				<port id="0">
					<dim>1</dim>
					<dim>8</dim>
					<dim>128</dim>
					<dim>128</dim>
				</port>
				<port id="1">
					<dim>16</dim>
					<dim>8</dim>
					<dim>1</dim>
					<dim>1</dim>
				</port>
			</input>
			<output>
				<port id="2" precision="FP16">
					<dim>1</dim>
					<dim>16</dim>
					<dim>128</dim>
					<dim>128</dim>
				</port>
			</output>
		</layer>
		<layer id="209" name="conv2d_16/Bias/read/Output_0/Data_/copy_const" type="Const" version="opset1">
			<data element_type="f16" offset="27088" shape="1,16,1,1" size="32"/>
			<output>
				<port id="1" precision="FP16">
					<dim>1</dim>
					<dim>16</dim>
					<dim>1</dim>
					<dim>1</dim>
				</port>
			</output>
		</layer>
		<layer id="210" name="conv2d_16" type="Add" version="opset1">
			<input>
				<port id="0">
					<dim>1</dim>
					<dim>16</dim>
					<dim>128</dim>
					<dim>128</dim>
				</port>
				<port id="1">
					<dim>1</dim>
					<dim>16</dim>
					<dim>1</dim>
					<dim>1</dim>
				</port>
			</input>
			<output>
				<port id="2" precision="FP16">
					<dim>1</dim>
					<dim>16</dim>
					<dim>128</dim>
					<dim>128</dim>
				</port>
			</output>
		</layer>
		<layer id="211" name="add_7" type="Add" version="opset1">
			<input>
				<port id="0">
					<dim>1</dim>
					<dim>16</dim>
					<dim>128</dim>
					<dim>128</dim>
				</port>
				<port id="1">
					<dim>1</dim>
					<dim>16</dim>
					<dim>128</dim>
					<dim>128</dim>
				</port>
			</input>
			<output>
				<port id="2" precision="FP16">
					<dim>1</dim>
					<dim>16</dim>
					<dim>128</dim>
					<dim>128</dim>
				</port>
			</output>
		</layer>
		<layer id="212" name="p_re_lu_16/mul" type="Multiply" version="opset1">
			<input>
				<port id="0">
					<dim>1</dim>
					<dim>16</dim>
					<dim>1</dim>
					<dim>1</dim>
				</port>
				<port id="1">
					<dim>1</dim>
					<dim>16</dim>
					<dim>128</dim>
					<dim>128</dim>
				</port>
			</input>
			<output>
				<port id="2" precision="FP16">
					<dim>1</dim>
					<dim>16</dim>
					<dim>128</dim>
					<dim>128</dim>
				</port>
			</output>
		</layer>
		<layer id="213" name="p_re_lu_16/Maximum" type="Maximum" version="opset1">
			<input>
				<port id="0">
					<dim>1</dim>
					<dim>16</dim>
					<dim>128</dim>
					<dim>128</dim>
				</port>
				<port id="1">
					<dim>1</dim>
					<dim>16</dim>
					<dim>128</dim>
					<dim>128</dim>
				</port>
			</input>
			<output>
				<port id="2" precision="FP16">
					<dim>1</dim>
					<dim>16</dim>
					<dim>128</dim>
					<dim>128</dim>
				</port>
			</output>
		</layer>
		<layer id="214" name="max_pooling2d" type="MaxPool" version="opset1">
			<data auto_pad="valid" kernel="2,2" pads_begin="0,0" pads_end="0,0" strides="2,2"/>
			<input>
				<port id="0">
					<dim>1</dim>
					<dim>16</dim>
					<dim>128</dim>
					<dim>128</dim>
				</port>
			</input>
			<output>
				<port id="1" precision="FP16">
					<dim>1</dim>
					<dim>16</dim>
					<dim>64</dim>
					<dim>64</dim>
				</port>
			</output>
		</layer>
		<layer id="215" name="channel_padding/Cast_139756_const" type="Const" version="opset1">
			<data element_type="i64" offset="27120" shape="4" size="32"/>
			<output>
				<port id="1" precision="I64">
					<dim>4</dim>
				</port>
			</output>
		</layer>
		<layer id="216" name="channel_padding/Cast_239758_const" type="Const" version="opset1">
			<data element_type="i64" offset="27152" shape="4" size="32"/>
			<output>
				<port id="1" precision="I64">
					<dim>4</dim>
				</port>
			</output>
		</layer>
		<layer id="217" name="1721/Output_0/Data__const" type="Const" version="opset1">
			<data element_type="f16" offset="27184" shape="" size="2"/>
			<output>
				<port id="1" precision="FP16"/>
			</output>
		</layer>
		<layer id="218" name="channel_padding" type="Pad" version="opset1">
			<data pad_mode="constant" pad_value="0.0"/>
			<input>
				<port id="0">
					<dim>1</dim>
					<dim>16</dim>
					<dim>64</dim>
					<dim>64</dim>
				</port>
				<port id="1">
					<dim>4</dim>
				</port>
				<port id="2">
					<dim>4</dim>
				</port>
				<port id="3"/>
			</input>
			<output>
				<port id="4" precision="FP16">
					<dim>1</dim>
					<dim>32</dim>
					<dim>64</dim>
					<dim>64</dim>
				</port>
			</output>
		</layer>
		<layer id="219" name="p_re_lu_17/p_re_lu_17/Alpha/read/Output_0/Data_/copy_const" type="Const" version="opset1">
			<data element_type="f16" offset="27186" shape="1,16,1,1" size="32"/>
			<output>
				<port id="1" precision="FP16">
					<dim>1</dim>
					<dim>16</dim>
					<dim>1</dim>
					<dim>1</dim>
				</port>
			</output>
		</layer>
		<layer id="220" name="conv2d_17/Kernel/read/Output_0/Data__const" type="Const" version="opset1">
			<data element_type="f16" offset="27218" shape="16,16,2,2" size="2048"/>
			<output>
				<port id="1" precision="FP16">
					<dim>16</dim>
					<dim>16</dim>
					<dim>2</dim>
					<dim>2</dim>
				</port>
			</output>
		</layer>
		<layer id="221" name="conv2d_17/conv2d" type="Convolution" version="opset1">
			<data auto_pad="valid" dilations="1,1" output_padding="0,0" pads_begin="0,0" pads_end="0,0" strides="2,2"/>
			<input>
				<port id="0">
					<dim>1</dim>
					<dim>16</dim>
					<dim>128</dim>
					<dim>128</dim>
				</port>
				<port id="1">
					<dim>16</dim>
					<dim>16</dim>
					<dim>2</dim>
					<dim>2</dim>
				</port>
			</input>
			<output>
				<port id="2" precision="FP16">
					<dim>1</dim>
					<dim>16</dim>
					<dim>64</dim>
					<dim>64</dim>
				</port>
			</output>
		</layer>
		<layer id="222" name="conv2d_17/Bias/read/Output_0/Data_/copy_const" type="Const" version="opset1">
			<data element_type="f16" offset="29266" shape="1,16,1,1" size="32"/>
			<output>
				<port id="1" precision="FP16">
					<dim>1</dim>
					<dim>16</dim>
					<dim>1</dim>
					<dim>1</dim>
				</port>
			</output>
		</layer>
		<layer id="223" name="conv2d_17" type="Add" version="opset1">
			<input>
				<port id="0">
					<dim>1</dim>
					<dim>16</dim>
					<dim>64</dim>
					<dim>64</dim>
				</port>
				<port id="1">
					<dim>1</dim>
					<dim>16</dim>
					<dim>1</dim>
					<dim>1</dim>
				</port>
			</input>
			<output>
				<port id="2" precision="FP16">
					<dim>1</dim>
					<dim>16</dim>
					<dim>64</dim>
					<dim>64</dim>
				</port>
			</output>
		</layer>
		<layer id="224" name="p_re_lu_17/mul" type="Multiply" version="opset1">
			<input>
				<port id="0">
					<dim>1</dim>
					<dim>16</dim>
					<dim>1</dim>
					<dim>1</dim>
				</port>
				<port id="1">
					<dim>1</dim>
					<dim>16</dim>
					<dim>64</dim>
					<dim>64</dim>
				</port>
			</input>
			<output>
				<port id="2" precision="FP16">
					<dim>1</dim>
					<dim>16</dim>
					<dim>64</dim>
					<dim>64</dim>
				</port>
			</output>
		</layer>
		<layer id="225" name="p_re_lu_17/Maximum" type="Maximum" version="opset1">
			<input>
				<port id="0">
					<dim>1</dim>
					<dim>16</dim>
					<dim>64</dim>
					<dim>64</dim>
				</port>
				<port id="1">
					<dim>1</dim>
					<dim>16</dim>
					<dim>64</dim>
					<dim>64</dim>
				</port>
			</input>
			<output>
				<port id="2" precision="FP16">
					<dim>1</dim>
					<dim>16</dim>
					<dim>64</dim>
					<dim>64</dim>
				</port>
			</output>
		</layer>
		<layer id="226" name="3857738580_const" type="Const" version="opset1">
			<data element_type="f16" offset="29298" shape="16,1,1,3,3" size="288"/>
			<output>
				<port id="1" precision="FP16">
					<dim>16</dim>
					<dim>1</dim>
					<dim>1</dim>
					<dim>3</dim>
					<dim>3</dim>
				</port>
			</output>
		</layer>
		<layer id="227" name="depthwise_conv2d_8/depthwise_conv2d" type="GroupConvolution" version="opset1">
			<data auto_pad="same_upper" dilations="1,1" output_padding="0,0" pads_begin="0,0" pads_end="0,0" strides="1,1"/>
			<input>
				<port id="0">
					<dim>1</dim>
					<dim>16</dim>
					<dim>64</dim>
					<dim>64</dim>
				</port>
				<port id="1">
					<dim>16</dim>
					<dim>1</dim>
					<dim>1</dim>
					<dim>3</dim>
					<dim>3</dim>
				</port>
			</input>
			<output>
				<port id="2" precision="FP16">
					<dim>1</dim>
					<dim>16</dim>
					<dim>64</dim>
					<dim>64</dim>
				</port>
			</output>
		</layer>
		<layer id="228" name="depthwise_conv2d_8/Bias/read/Output_0/Data_/copy_const" type="Const" version="opset1">
			<data element_type="f16" offset="29586" shape="1,16,1,1" size="32"/>
			<output>
				<port id="1" precision="FP16">
					<dim>1</dim>
					<dim>16</dim>
					<dim>1</dim>
					<dim>1</dim>
				</port>
			</output>
		</layer>
		<layer id="229" name="depthwise_conv2d_8" type="Add" version="opset1">
			<input>
				<port id="0">
					<dim>1</dim>
					<dim>16</dim>
					<dim>64</dim>
					<dim>64</dim>
				</port>
				<port id="1">
					<dim>1</dim>
					<dim>16</dim>
					<dim>1</dim>
					<dim>1</dim>
				</port>
			</input>
			<output>
				<port id="2" precision="FP16">
					<dim>1</dim>
					<dim>16</dim>
					<dim>64</dim>
					<dim>64</dim>
				</port>
			</output>
		</layer>
		<layer id="230" name="conv2d_18/Kernel/read/Output_0/Data__const" type="Const" version="opset1">
			<data element_type="f16" offset="29618" shape="32,16,1,1" size="1024"/>
			<output>
				<port id="1" precision="FP16">
					<dim>32</dim>
					<dim>16</dim>
					<dim>1</dim>
					<dim>1</dim>
				</port>
			</output>
		</layer>
		<layer id="231" name="conv2d_18/conv2d" type="Convolution" version="opset1">
			<data auto_pad="valid" dilations="1,1" output_padding="0,0" pads_begin="0,0" pads_end="0,0" strides="1,1"/>
			<input>
				<port id="0">
					<dim>1</dim>
					<dim>16</dim>
					<dim>64</dim>
					<dim>64</dim>
				</port>
				<port id="1">
					<dim>32</dim>
					<dim>16</dim>
					<dim>1</dim>
					<dim>1</dim>
				</port>
			</input>
			<output>
				<port id="2" precision="FP16">
					<dim>1</dim>
					<dim>32</dim>
					<dim>64</dim>
					<dim>64</dim>
				</port>
			</output>
		</layer>
		<layer id="232" name="conv2d_18/Bias/read/Output_0/Data_/copy_const" type="Const" version="opset1">
			<data element_type="f16" offset="30642" shape="1,32,1,1" size="64"/>
			<output>
				<port id="1" precision="FP16">
					<dim>1</dim>
					<dim>32</dim>
					<dim>1</dim>
					<dim>1</dim>
				</port>
			</output>
		</layer>
		<layer id="233" name="conv2d_18" type="Add" version="opset1">
			<input>
				<port id="0">
					<dim>1</dim>
					<dim>32</dim>
					<dim>64</dim>
					<dim>64</dim>
				</port>
				<port id="1">
					<dim>1</dim>
					<dim>32</dim>
					<dim>1</dim>
					<dim>1</dim>
				</port>
			</input>
			<output>
				<port id="2" precision="FP16">
					<dim>1</dim>
					<dim>32</dim>
					<dim>64</dim>
					<dim>64</dim>
				</port>
			</output>
		</layer>
		<layer id="234" name="add_8" type="Add" version="opset1">
			<input>
				<port id="0">
					<dim>1</dim>
					<dim>32</dim>
					<dim>64</dim>
					<dim>64</dim>
				</port>
				<port id="1">
					<dim>1</dim>
					<dim>32</dim>
					<dim>64</dim>
					<dim>64</dim>
				</port>
			</input>
			<output>
				<port id="2" precision="FP16">
					<dim>1</dim>
					<dim>32</dim>
					<dim>64</dim>
					<dim>64</dim>
				</port>
			</output>
		</layer>
		<layer id="235" name="p_re_lu_18/mul" type="Multiply" version="opset1">
			<input>
				<port id="0">
					<dim>1</dim>
					<dim>32</dim>
					<dim>1</dim>
					<dim>1</dim>
				</port>
				<port id="1">
					<dim>1</dim>
					<dim>32</dim>
					<dim>64</dim>
					<dim>64</dim>
				</port>
			</input>
			<output>
				<port id="2" precision="FP16">
					<dim>1</dim>
					<dim>32</dim>
					<dim>64</dim>
					<dim>64</dim>
				</port>
			</output>
		</layer>
		<layer id="236" name="p_re_lu_18/Maximum" type="Maximum" version="opset1">
			<input>
				<port id="0">
					<dim>1</dim>
					<dim>32</dim>
					<dim>64</dim>
					<dim>64</dim>
				</port>
				<port id="1">
					<dim>1</dim>
					<dim>32</dim>
					<dim>64</dim>
					<dim>64</dim>
				</port>
			</input>
			<output>
				<port id="2" precision="FP16">
					<dim>1</dim>
					<dim>32</dim>
					<dim>64</dim>
					<dim>64</dim>
				</port>
			</output>
		</layer>
		<layer id="237" name="p_re_lu_19/p_re_lu_19/Alpha/read/Output_0/Data_/copy_const" type="Const" version="opset1">
			<data element_type="f16" offset="30706" shape="1,16,1,1" size="32"/>
			<output>
				<port id="1" precision="FP16">
					<dim>1</dim>
					<dim>16</dim>
					<dim>1</dim>
					<dim>1</dim>
				</port>
			</output>
		</layer>
		<layer id="238" name="conv2d_19/Kernel/read/Output_0/Data__const" type="Const" version="opset1">
			<data element_type="f16" offset="30738" shape="16,32,1,1" size="1024"/>
			<output>
				<port id="1" precision="FP16">
					<dim>16</dim>
					<dim>32</dim>
					<dim>1</dim>
					<dim>1</dim>
				</port>
			</output>
		</layer>
		<layer id="239" name="conv2d_19/conv2d" type="Convolution" version="opset1">
			<data auto_pad="valid" dilations="1,1" output_padding="0,0" pads_begin="0,0" pads_end="0,0" strides="1,1"/>
			<input>
				<port id="0">
					<dim>1</dim>
					<dim>32</dim>
					<dim>64</dim>
					<dim>64</dim>
				</port>
				<port id="1">
					<dim>16</dim>
					<dim>32</dim>
					<dim>1</dim>
					<dim>1</dim>
				</port>
			</input>
			<output>
				<port id="2" precision="FP16">
					<dim>1</dim>
					<dim>16</dim>
					<dim>64</dim>
					<dim>64</dim>
				</port>
			</output>
		</layer>
		<layer id="240" name="conv2d_19/Bias/read/Output_0/Data_/copy_const" type="Const" version="opset1">
			<data element_type="f16" offset="31762" shape="1,16,1,1" size="32"/>
			<output>
				<port id="1" precision="FP16">
					<dim>1</dim>
					<dim>16</dim>
					<dim>1</dim>
					<dim>1</dim>
				</port>
			</output>
		</layer>
		<layer id="241" name="conv2d_19" type="Add" version="opset1">
			<input>
				<port id="0">
					<dim>1</dim>
					<dim>16</dim>
					<dim>64</dim>
					<dim>64</dim>
				</port>
				<port id="1">
					<dim>1</dim>
					<dim>16</dim>
					<dim>1</dim>
					<dim>1</dim>
				</port>
			</input>
			<output>
				<port id="2" precision="FP16">
					<dim>1</dim>
					<dim>16</dim>
					<dim>64</dim>
					<dim>64</dim>
				</port>
			</output>
		</layer>
		<layer id="242" name="p_re_lu_19/mul" type="Multiply" version="opset1">
			<input>
				<port id="0">
					<dim>1</dim>
					<dim>16</dim>
					<dim>1</dim>
					<dim>1</dim>
				</port>
				<port id="1">
					<dim>1</dim>
					<dim>16</dim>
					<dim>64</dim>
					<dim>64</dim>
				</port>
			</input>
			<output>
				<port id="2" precision="FP16">
					<dim>1</dim>
					<dim>16</dim>
					<dim>64</dim>
					<dim>64</dim>
				</port>
			</output>
		</layer>
		<layer id="243" name="p_re_lu_19/Maximum" type="Maximum" version="opset1">
			<input>
				<port id="0">
					<dim>1</dim>
					<dim>16</dim>
					<dim>64</dim>
					<dim>64</dim>
				</port>
				<port id="1">
					<dim>1</dim>
					<dim>16</dim>
					<dim>64</dim>
					<dim>64</dim>
				</port>
			</input>
			<output>
				<port id="2" precision="FP16">
					<dim>1</dim>
					<dim>16</dim>
					<dim>64</dim>
					<dim>64</dim>
				</port>
			</output>
		</layer>
		<layer id="244" name="3848538488_const" type="Const" version="opset1">
			<data element_type="f16" offset="31794" shape="16,1,1,3,3" size="288"/>
			<output>
				<port id="1" precision="FP16">
					<dim>16</dim>
					<dim>1</dim>
					<dim>1</dim>
					<dim>3</dim>
					<dim>3</dim>
				</port>
			</output>
		</layer>
		<layer id="245" name="depthwise_conv2d_9/depthwise_conv2d" type="GroupConvolution" version="opset1">
			<data auto_pad="same_upper" dilations="1,1" output_padding="0,0" pads_begin="0,0" pads_end="0,0" strides="1,1"/>
			<input>
				<port id="0">
					<dim>1</dim>
					<dim>16</dim>
					<dim>64</dim>
					<dim>64</dim>
				</port>
				<port id="1">
					<dim>16</dim>
					<dim>1</dim>
					<dim>1</dim>
					<dim>3</dim>
					<dim>3</dim>
				</port>
			</input>
			<output>
				<port id="2" precision="FP16">
					<dim>1</dim>
					<dim>16</dim>
					<dim>64</dim>
					<dim>64</dim>
				</port>
			</output>
		</layer>
		<layer id="246" name="depthwise_conv2d_9/Bias/read/Output_0/Data_/copy_const" type="Const" version="opset1">
			<data element_type="f16" offset="29586" shape="1,16,1,1" size="32"/>
			<output>
				<port id="1" precision="FP16">
					<dim>1</dim>
					<dim>16</dim>
					<dim>1</dim>
					<dim>1</dim>
				</port>
			</output>
		</layer>
		<layer id="247" name="depthwise_conv2d_9" type="Add" version="opset1">
			<input>
				<port id="0">
					<dim>1</dim>
					<dim>16</dim>
					<dim>64</dim>
					<dim>64</dim>
				</port>
				<port id="1">
					<dim>1</dim>
					<dim>16</dim>
					<dim>1</dim>
					<dim>1</dim>
				</port>
			</input>
			<output>
				<port id="2" precision="FP16">
					<dim>1</dim>
					<dim>16</dim>
					<dim>64</dim>
					<dim>64</dim>
				</port>
			</output>
		</layer>
		<layer id="248" name="conv2d_20/Kernel/read/Output_0/Data__const" type="Const" version="opset1">
			<data element_type="f16" offset="32082" shape="32,16,1,1" size="1024"/>
			<output>
				<port id="1" precision="FP16">
					<dim>32</dim>
					<dim>16</dim>
					<dim>1</dim>
					<dim>1</dim>
				</port>
			</output>
		</layer>
		<layer id="249" name="conv2d_20/conv2d" type="Convolution" version="opset1">
			<data auto_pad="valid" dilations="1,1" output_padding="0,0" pads_begin="0,0" pads_end="0,0" strides="1,1"/>
			<input>
				<port id="0">
					<dim>1</dim>
					<dim>16</dim>
					<dim>64</dim>
					<dim>64</dim>
				</port>
				<port id="1">
					<dim>32</dim>
					<dim>16</dim>
					<dim>1</dim>
					<dim>1</dim>
				</port>
			</input>
			<output>
				<port id="2" precision="FP16">
					<dim>1</dim>
					<dim>32</dim>
					<dim>64</dim>
					<dim>64</dim>
				</port>
			</output>
		</layer>
		<layer id="250" name="conv2d_20/Bias/read/Output_0/Data_/copy_const" type="Const" version="opset1">
			<data element_type="f16" offset="33106" shape="1,32,1,1" size="64"/>
			<output>
				<port id="1" precision="FP16">
					<dim>1</dim>
					<dim>32</dim>
					<dim>1</dim>
					<dim>1</dim>
				</port>
			</output>
		</layer>
		<layer id="251" name="conv2d_20" type="Add" version="opset1">
			<input>
				<port id="0">
					<dim>1</dim>
					<dim>32</dim>
					<dim>64</dim>
					<dim>64</dim>
				</port>
				<port id="1">
					<dim>1</dim>
					<dim>32</dim>
					<dim>1</dim>
					<dim>1</dim>
				</port>
			</input>
			<output>
				<port id="2" precision="FP16">
					<dim>1</dim>
					<dim>32</dim>
					<dim>64</dim>
					<dim>64</dim>
				</port>
			</output>
		</layer>
		<layer id="252" name="add_9" type="Add" version="opset1">
			<input>
				<port id="0">
					<dim>1</dim>
					<dim>32</dim>
					<dim>64</dim>
					<dim>64</dim>
				</port>
				<port id="1">
					<dim>1</dim>
					<dim>32</dim>
					<dim>64</dim>
					<dim>64</dim>
				</port>
			</input>
			<output>
				<port id="2" precision="FP16">
					<dim>1</dim>
					<dim>32</dim>
					<dim>64</dim>
					<dim>64</dim>
				</port>
			</output>
		</layer>
		<layer id="253" name="p_re_lu_20/mul" type="Multiply" version="opset1">
			<input>
				<port id="0">
					<dim>1</dim>
					<dim>32</dim>
					<dim>1</dim>
					<dim>1</dim>
				</port>
				<port id="1">
					<dim>1</dim>
					<dim>32</dim>
					<dim>64</dim>
					<dim>64</dim>
				</port>
			</input>
			<output>
				<port id="2" precision="FP16">
					<dim>1</dim>
					<dim>32</dim>
					<dim>64</dim>
					<dim>64</dim>
				</port>
			</output>
		</layer>
		<layer id="254" name="p_re_lu_20/Maximum" type="Maximum" version="opset1">
			<input>
				<port id="0">
					<dim>1</dim>
					<dim>32</dim>
					<dim>64</dim>
					<dim>64</dim>
				</port>
				<port id="1">
					<dim>1</dim>
					<dim>32</dim>
					<dim>64</dim>
					<dim>64</dim>
				</port>
			</input>
			<output>
				<port id="2" precision="FP16">
					<dim>1</dim>
					<dim>32</dim>
					<dim>64</dim>
					<dim>64</dim>
				</port>
			</output>
		</layer>
		<layer id="255" name="p_re_lu_21/p_re_lu_21/Alpha/read/Output_0/Data_/copy_const" type="Const" version="opset1">
			<data element_type="f16" offset="33170" shape="1,16,1,1" size="32"/>
			<output>
				<port id="1" precision="FP16">
					<dim>1</dim>
					<dim>16</dim>
					<dim>1</dim>
					<dim>1</dim>
				</port>
			</output>
		</layer>
		<layer id="256" name="conv2d_21/Kernel/read/Output_0/Data__const" type="Const" version="opset1">
			<data element_type="f16" offset="33202" shape="16,32,1,1" size="1024"/>
			<output>
				<port id="1" precision="FP16">
					<dim>16</dim>
					<dim>32</dim>
					<dim>1</dim>
					<dim>1</dim>
				</port>
			</output>
		</layer>
		<layer id="257" name="conv2d_21/conv2d" type="Convolution" version="opset1">
			<data auto_pad="valid" dilations="1,1" output_padding="0,0" pads_begin="0,0" pads_end="0,0" strides="1,1"/>
			<input>
				<port id="0">
					<dim>1</dim>
					<dim>32</dim>
					<dim>64</dim>
					<dim>64</dim>
				</port>
				<port id="1">
					<dim>16</dim>
					<dim>32</dim>
					<dim>1</dim>
					<dim>1</dim>
				</port>
			</input>
			<output>
				<port id="2" precision="FP16">
					<dim>1</dim>
					<dim>16</dim>
					<dim>64</dim>
					<dim>64</dim>
				</port>
			</output>
		</layer>
		<layer id="258" name="conv2d_21/Bias/read/Output_0/Data_/copy_const" type="Const" version="opset1">
			<data element_type="f16" offset="34226" shape="1,16,1,1" size="32"/>
			<output>
				<port id="1" precision="FP16">
					<dim>1</dim>
					<dim>16</dim>
					<dim>1</dim>
					<dim>1</dim>
				</port>
			</output>
		</layer>
		<layer id="259" name="conv2d_21" type="Add" version="opset1">
			<input>
				<port id="0">
					<dim>1</dim>
					<dim>16</dim>
					<dim>64</dim>
					<dim>64</dim>
				</port>
				<port id="1">
					<dim>1</dim>
					<dim>16</dim>
					<dim>1</dim>
					<dim>1</dim>
				</port>
			</input>
			<output>
				<port id="2" precision="FP16">
					<dim>1</dim>
					<dim>16</dim>
					<dim>64</dim>
					<dim>64</dim>
				</port>
			</output>
		</layer>
		<layer id="260" name="p_re_lu_21/mul" type="Multiply" version="opset1">
			<input>
				<port id="0">
					<dim>1</dim>
					<dim>16</dim>
					<dim>1</dim>
					<dim>1</dim>
				</port>
				<port id="1">
					<dim>1</dim>
					<dim>16</dim>
					<dim>64</dim>
					<dim>64</dim>
				</port>
			</input>
			<output>
				<port id="2" precision="FP16">
					<dim>1</dim>
					<dim>16</dim>
					<dim>64</dim>
					<dim>64</dim>
				</port>
			</output>
		</layer>
		<layer id="261" name="p_re_lu_21/Maximum" type="Maximum" version="opset1">
			<input>
				<port id="0">
					<dim>1</dim>
					<dim>16</dim>
					<dim>64</dim>
					<dim>64</dim>
				</port>
				<port id="1">
					<dim>1</dim>
					<dim>16</dim>
					<dim>64</dim>
					<dim>64</dim>
				</port>
			</input>
			<output>
				<port id="2" precision="FP16">
					<dim>1</dim>
					<dim>16</dim>
					<dim>64</dim>
					<dim>64</dim>
				</port>
			</output>
		</layer>
		<layer id="262" name="3858938592_const" type="Const" version="opset1">
			<data element_type="f16" offset="34258" shape="16,1,1,3,3" size="288"/>
			<output>
				<port id="1" precision="FP16">
					<dim>16</dim>
					<dim>1</dim>
					<dim>1</dim>
					<dim>3</dim>
					<dim>3</dim>
				</port>
			</output>
		</layer>
		<layer id="263" name="depthwise_conv2d_10/depthwise_conv2d" type="GroupConvolution" version="opset1">
			<data auto_pad="same_upper" dilations="1,1" output_padding="0,0" pads_begin="0,0" pads_end="0,0" strides="1,1"/>
			<input>
				<port id="0">
					<dim>1</dim>
					<dim>16</dim>
					<dim>64</dim>
					<dim>64</dim>
				</port>
				<port id="1">
					<dim>16</dim>
					<dim>1</dim>
					<dim>1</dim>
					<dim>3</dim>
					<dim>3</dim>
				</port>
			</input>
			<output>
				<port id="2" precision="FP16">
					<dim>1</dim>
					<dim>16</dim>
					<dim>64</dim>
					<dim>64</dim>
				</port>
			</output>
		</layer>
		<layer id="264" name="depthwise_conv2d_10/Bias/read/Output_0/Data_/copy_const" type="Const" version="opset1">
			<data element_type="f16" offset="29586" shape="1,16,1,1" size="32"/>
			<output>
				<port id="1" precision="FP16">
					<dim>1</dim>
					<dim>16</dim>
					<dim>1</dim>
					<dim>1</dim>
				</port>
			</output>
		</layer>
		<layer id="265" name="depthwise_conv2d_10" type="Add" version="opset1">
			<input>
				<port id="0">
					<dim>1</dim>
					<dim>16</dim>
					<dim>64</dim>
					<dim>64</dim>
				</port>
				<port id="1">
					<dim>1</dim>
					<dim>16</dim>
					<dim>1</dim>
					<dim>1</dim>
				</port>
			</input>
			<output>
				<port id="2" precision="FP16">
					<dim>1</dim>
					<dim>16</dim>
					<dim>64</dim>
					<dim>64</dim>
				</port>
			</output>
		</layer>
		<layer id="266" name="conv2d_22/Kernel/read/Output_0/Data__const" type="Const" version="opset1">
			<data element_type="f16" offset="34546" shape="32,16,1,1" size="1024"/>
			<output>
				<port id="1" precision="FP16">
					<dim>32</dim>
					<dim>16</dim>
					<dim>1</dim>
					<dim>1</dim>
				</port>
			</output>
		</layer>
		<layer id="267" name="conv2d_22/conv2d" type="Convolution" version="opset1">
			<data auto_pad="valid" dilations="1,1" output_padding="0,0" pads_begin="0,0" pads_end="0,0" strides="1,1"/>
			<input>
				<port id="0">
					<dim>1</dim>
					<dim>16</dim>
					<dim>64</dim>
					<dim>64</dim>
				</port>
				<port id="1">
					<dim>32</dim>
					<dim>16</dim>
					<dim>1</dim>
					<dim>1</dim>
				</port>
			</input>
			<output>
				<port id="2" precision="FP16">
					<dim>1</dim>
					<dim>32</dim>
					<dim>64</dim>
					<dim>64</dim>
				</port>
			</output>
		</layer>
		<layer id="268" name="conv2d_22/Bias/read/Output_0/Data_/copy_const" type="Const" version="opset1">
			<data element_type="f16" offset="35570" shape="1,32,1,1" size="64"/>
			<output>
				<port id="1" precision="FP16">
					<dim>1</dim>
					<dim>32</dim>
					<dim>1</dim>
					<dim>1</dim>
				</port>
			</output>
		</layer>
		<layer id="269" name="conv2d_22" type="Add" version="opset1">
			<input>
				<port id="0">
					<dim>1</dim>
					<dim>32</dim>
					<dim>64</dim>
					<dim>64</dim>
				</port>
				<port id="1">
					<dim>1</dim>
					<dim>32</dim>
					<dim>1</dim>
					<dim>1</dim>
				</port>
			</input>
			<output>
				<port id="2" precision="FP16">
					<dim>1</dim>
					<dim>32</dim>
					<dim>64</dim>
					<dim>64</dim>
				</port>
			</output>
		</layer>
		<layer id="270" name="add_10" type="Add" version="opset1">
			<input>
				<port id="0">
					<dim>1</dim>
					<dim>32</dim>
					<dim>64</dim>
					<dim>64</dim>
				</port>
				<port id="1">
					<dim>1</dim>
					<dim>32</dim>
					<dim>64</dim>
					<dim>64</dim>
				</port>
			</input>
			<output>
				<port id="2" precision="FP16">
					<dim>1</dim>
					<dim>32</dim>
					<dim>64</dim>
					<dim>64</dim>
				</port>
			</output>
		</layer>
		<layer id="271" name="p_re_lu_22/mul" type="Multiply" version="opset1">
			<input>
				<port id="0">
					<dim>1</dim>
					<dim>32</dim>
					<dim>1</dim>
					<dim>1</dim>
				</port>
				<port id="1">
					<dim>1</dim>
					<dim>32</dim>
					<dim>64</dim>
					<dim>64</dim>
				</port>
			</input>
			<output>
				<port id="2" precision="FP16">
					<dim>1</dim>
					<dim>32</dim>
					<dim>64</dim>
					<dim>64</dim>
				</port>
			</output>
		</layer>
		<layer id="272" name="p_re_lu_22/Maximum" type="Maximum" version="opset1">
			<input>
				<port id="0">
					<dim>1</dim>
					<dim>32</dim>
					<dim>64</dim>
					<dim>64</dim>
				</port>
				<port id="1">
					<dim>1</dim>
					<dim>32</dim>
					<dim>64</dim>
					<dim>64</dim>
				</port>
			</input>
			<output>
				<port id="2" precision="FP16">
					<dim>1</dim>
					<dim>32</dim>
					<dim>64</dim>
					<dim>64</dim>
				</port>
			</output>
		</layer>
		<layer id="273" name="p_re_lu_23/p_re_lu_23/Alpha/read/Output_0/Data_/copy_const" type="Const" version="opset1">
			<data element_type="f16" offset="35634" shape="1,16,1,1" size="32"/>
			<output>
				<port id="1" precision="FP16">
					<dim>1</dim>
					<dim>16</dim>
					<dim>1</dim>
					<dim>1</dim>
				</port>
			</output>
		</layer>
		<layer id="274" name="conv2d_23/Kernel/read/Output_0/Data__const" type="Const" version="opset1">
			<data element_type="f16" offset="35666" shape="16,32,1,1" size="1024"/>
			<output>
				<port id="1" precision="FP16">
					<dim>16</dim>
					<dim>32</dim>
					<dim>1</dim>
					<dim>1</dim>
				</port>
			</output>
		</layer>
		<layer id="275" name="conv2d_23/conv2d" type="Convolution" version="opset1">
			<data auto_pad="valid" dilations="1,1" output_padding="0,0" pads_begin="0,0" pads_end="0,0" strides="1,1"/>
			<input>
				<port id="0">
					<dim>1</dim>
					<dim>32</dim>
					<dim>64</dim>
					<dim>64</dim>
				</port>
				<port id="1">
					<dim>16</dim>
					<dim>32</dim>
					<dim>1</dim>
					<dim>1</dim>
				</port>
			</input>
			<output>
				<port id="2" precision="FP16">
					<dim>1</dim>
					<dim>16</dim>
					<dim>64</dim>
					<dim>64</dim>
				</port>
			</output>
		</layer>
		<layer id="276" name="conv2d_23/Bias/read/Output_0/Data_/copy_const" type="Const" version="opset1">
			<data element_type="f16" offset="36690" shape="1,16,1,1" size="32"/>
			<output>
				<port id="1" precision="FP16">
					<dim>1</dim>
					<dim>16</dim>
					<dim>1</dim>
					<dim>1</dim>
				</port>
			</output>
		</layer>
		<layer id="277" name="conv2d_23" type="Add" version="opset1">
			<input>
				<port id="0">
					<dim>1</dim>
					<dim>16</dim>
					<dim>64</dim>
					<dim>64</dim>
				</port>
				<port id="1">
					<dim>1</dim>
					<dim>16</dim>
					<dim>1</dim>
					<dim>1</dim>
				</port>
			</input>
			<output>
				<port id="2" precision="FP16">
					<dim>1</dim>
					<dim>16</dim>
					<dim>64</dim>
					<dim>64</dim>
				</port>
			</output>
		</layer>
		<layer id="278" name="p_re_lu_23/mul" type="Multiply" version="opset1">
			<input>
				<port id="0">
					<dim>1</dim>
					<dim>16</dim>
					<dim>1</dim>
					<dim>1</dim>
				</port>
				<port id="1">
					<dim>1</dim>
					<dim>16</dim>
					<dim>64</dim>
					<dim>64</dim>
				</port>
			</input>
			<output>
				<port id="2" precision="FP16">
					<dim>1</dim>
					<dim>16</dim>
					<dim>64</dim>
					<dim>64</dim>
				</port>
			</output>
		</layer>
		<layer id="279" name="p_re_lu_23/Maximum" type="Maximum" version="opset1">
			<input>
				<port id="0">
					<dim>1</dim>
					<dim>16</dim>
					<dim>64</dim>
					<dim>64</dim>
				</port>
				<port id="1">
					<dim>1</dim>
					<dim>16</dim>
					<dim>64</dim>
					<dim>64</dim>
				</port>
			</input>
			<output>
				<port id="2" precision="FP16">
					<dim>1</dim>
					<dim>16</dim>
					<dim>64</dim>
					<dim>64</dim>
				</port>
			</output>
		</layer>
		<layer id="280" name="3847338476_const" type="Const" version="opset1">
			<data element_type="f16" offset="36722" shape="16,1,1,3,3" size="288"/>
			<output>
				<port id="1" precision="FP16">
					<dim>16</dim>
					<dim>1</dim>
					<dim>1</dim>
					<dim>3</dim>
					<dim>3</dim>
				</port>
			</output>
		</layer>
		<layer id="281" name="depthwise_conv2d_11/depthwise_conv2d" type="GroupConvolution" version="opset1">
			<data auto_pad="same_upper" dilations="1,1" output_padding="0,0" pads_begin="0,0" pads_end="0,0" strides="1,1"/>
			<input>
				<port id="0">
					<dim>1</dim>
					<dim>16</dim>
					<dim>64</dim>
					<dim>64</dim>
				</port>
				<port id="1">
					<dim>16</dim>
					<dim>1</dim>
					<dim>1</dim>
					<dim>3</dim>
					<dim>3</dim>
				</port>
			</input>
			<output>
				<port id="2" precision="FP16">
					<dim>1</dim>
					<dim>16</dim>
					<dim>64</dim>
					<dim>64</dim>
				</port>
			</output>
		</layer>
		<layer id="282" name="depthwise_conv2d_11/Bias/read/Output_0/Data_/copy_const" type="Const" version="opset1">
			<data element_type="f16" offset="29586" shape="1,16,1,1" size="32"/>
			<output>
				<port id="1" precision="FP16">
					<dim>1</dim>
					<dim>16</dim>
					<dim>1</dim>
					<dim>1</dim>
				</port>
			</output>
		</layer>
		<layer id="283" name="depthwise_conv2d_11" type="Add" version="opset1">
			<input>
				<port id="0">
					<dim>1</dim>
					<dim>16</dim>
					<dim>64</dim>
					<dim>64</dim>
				</port>
				<port id="1">
					<dim>1</dim>
					<dim>16</dim>
					<dim>1</dim>
					<dim>1</dim>
				</port>
			</input>
			<output>
				<port id="2" precision="FP16">
					<dim>1</dim>
					<dim>16</dim>
					<dim>64</dim>
					<dim>64</dim>
				</port>
			</output>
		</layer>
		<layer id="284" name="conv2d_24/Kernel/read/Output_0/Data__const" type="Const" version="opset1">
			<data element_type="f16" offset="37010" shape="32,16,1,1" size="1024"/>
			<output>
				<port id="1" precision="FP16">
					<dim>32</dim>
					<dim>16</dim>
					<dim>1</dim>
					<dim>1</dim>
				</port>
			</output>
		</layer>
		<layer id="285" name="conv2d_24/conv2d" type="Convolution" version="opset1">
			<data auto_pad="valid" dilations="1,1" output_padding="0,0" pads_begin="0,0" pads_end="0,0" strides="1,1"/>
			<input>
				<port id="0">
					<dim>1</dim>
					<dim>16</dim>
					<dim>64</dim>
					<dim>64</dim>
				</port>
				<port id="1">
					<dim>32</dim>
					<dim>16</dim>
					<dim>1</dim>
					<dim>1</dim>
				</port>
			</input>
			<output>
				<port id="2" precision="FP16">
					<dim>1</dim>
					<dim>32</dim>
					<dim>64</dim>
					<dim>64</dim>
				</port>
			</output>
		</layer>
		<layer id="286" name="conv2d_24/Bias/read/Output_0/Data_/copy_const" type="Const" version="opset1">
			<data element_type="f16" offset="38034" shape="1,32,1,1" size="64"/>
			<output>
				<port id="1" precision="FP16">
					<dim>1</dim>
					<dim>32</dim>
					<dim>1</dim>
					<dim>1</dim>
				</port>
			</output>
		</layer>
		<layer id="287" name="conv2d_24" type="Add" version="opset1">
			<input>
				<port id="0">
					<dim>1</dim>
					<dim>32</dim>
					<dim>64</dim>
					<dim>64</dim>
				</port>
				<port id="1">
					<dim>1</dim>
					<dim>32</dim>
					<dim>1</dim>
					<dim>1</dim>
				</port>
			</input>
			<output>
				<port id="2" precision="FP16">
					<dim>1</dim>
					<dim>32</dim>
					<dim>64</dim>
					<dim>64</dim>
				</port>
			</output>
		</layer>
		<layer id="288" name="add_11" type="Add" version="opset1">
			<input>
				<port id="0">
					<dim>1</dim>
					<dim>32</dim>
					<dim>64</dim>
					<dim>64</dim>
				</port>
				<port id="1">
					<dim>1</dim>
					<dim>32</dim>
					<dim>64</dim>
					<dim>64</dim>
				</port>
			</input>
			<output>
				<port id="2" precision="FP16">
					<dim>1</dim>
					<dim>32</dim>
					<dim>64</dim>
					<dim>64</dim>
				</port>
			</output>
		</layer>
		<layer id="289" name="p_re_lu_24/mul" type="Multiply" version="opset1">
			<input>
				<port id="0">
					<dim>1</dim>
					<dim>32</dim>
					<dim>1</dim>
					<dim>1</dim>
				</port>
				<port id="1">
					<dim>1</dim>
					<dim>32</dim>
					<dim>64</dim>
					<dim>64</dim>
				</port>
			</input>
			<output>
				<port id="2" precision="FP16">
					<dim>1</dim>
					<dim>32</dim>
					<dim>64</dim>
					<dim>64</dim>
				</port>
			</output>
		</layer>
		<layer id="290" name="p_re_lu_24/Maximum" type="Maximum" version="opset1">
			<input>
				<port id="0">
					<dim>1</dim>
					<dim>32</dim>
					<dim>64</dim>
					<dim>64</dim>
				</port>
				<port id="1">
					<dim>1</dim>
					<dim>32</dim>
					<dim>64</dim>
					<dim>64</dim>
				</port>
			</input>
			<output>
				<port id="2" precision="FP16">
					<dim>1</dim>
					<dim>32</dim>
					<dim>64</dim>
					<dim>64</dim>
				</port>
			</output>
		</layer>
		<layer id="291" name="p_re_lu_25/p_re_lu_25/Alpha/read/Output_0/Data_/copy_const" type="Const" version="opset1">
			<data element_type="f16" offset="38098" shape="1,16,1,1" size="32"/>
			<output>
				<port id="1" precision="FP16">
					<dim>1</dim>
					<dim>16</dim>
					<dim>1</dim>
					<dim>1</dim>
				</port>
			</output>
		</layer>
		<layer id="292" name="conv2d_25/Kernel/read/Output_0/Data__const" type="Const" version="opset1">
			<data element_type="f16" offset="38130" shape="16,32,1,1" size="1024"/>
			<output>
				<port id="1" precision="FP16">
					<dim>16</dim>
					<dim>32</dim>
					<dim>1</dim>
					<dim>1</dim>
				</port>
			</output>
		</layer>
		<layer id="293" name="conv2d_25/conv2d" type="Convolution" version="opset1">
			<data auto_pad="valid" dilations="1,1" output_padding="0,0" pads_begin="0,0" pads_end="0,0" strides="1,1"/>
			<input>
				<port id="0">
					<dim>1</dim>
					<dim>32</dim>
					<dim>64</dim>
					<dim>64</dim>
				</port>
				<port id="1">
					<dim>16</dim>
					<dim>32</dim>
					<dim>1</dim>
					<dim>1</dim>
				</port>
			</input>
			<output>
				<port id="2" precision="FP16">
					<dim>1</dim>
					<dim>16</dim>
					<dim>64</dim>
					<dim>64</dim>
				</port>
			</output>
		</layer>
		<layer id="294" name="conv2d_25/Bias/read/Output_0/Data_/copy_const" type="Const" version="opset1">
			<data element_type="f16" offset="39154" shape="1,16,1,1" size="32"/>
			<output>
				<port id="1" precision="FP16">
					<dim>1</dim>
					<dim>16</dim>
					<dim>1</dim>
					<dim>1</dim>
				</port>
			</output>
		</layer>
		<layer id="295" name="conv2d_25" type="Add" version="opset1">
			<input>
				<port id="0">
					<dim>1</dim>
					<dim>16</dim>
					<dim>64</dim>
					<dim>64</dim>
				</port>
				<port id="1">
					<dim>1</dim>
					<dim>16</dim>
					<dim>1</dim>
					<dim>1</dim>
				</port>
			</input>
			<output>
				<port id="2" precision="FP16">
					<dim>1</dim>
					<dim>16</dim>
					<dim>64</dim>
					<dim>64</dim>
				</port>
			</output>
		</layer>
		<layer id="296" name="p_re_lu_25/mul" type="Multiply" version="opset1">
			<input>
				<port id="0">
					<dim>1</dim>
					<dim>16</dim>
					<dim>1</dim>
					<dim>1</dim>
				</port>
				<port id="1">
					<dim>1</dim>
					<dim>16</dim>
					<dim>64</dim>
					<dim>64</dim>
				</port>
			</input>
			<output>
				<port id="2" precision="FP16">
					<dim>1</dim>
					<dim>16</dim>
					<dim>64</dim>
					<dim>64</dim>
				</port>
			</output>
		</layer>
		<layer id="297" name="p_re_lu_25/Maximum" type="Maximum" version="opset1">
			<input>
				<port id="0">
					<dim>1</dim>
					<dim>16</dim>
					<dim>64</dim>
					<dim>64</dim>
				</port>
				<port id="1">
					<dim>1</dim>
					<dim>16</dim>
					<dim>64</dim>
					<dim>64</dim>
				</port>
			</input>
			<output>
				<port id="2" precision="FP16">
					<dim>1</dim>
					<dim>16</dim>
					<dim>64</dim>
					<dim>64</dim>
				</port>
			</output>
		</layer>
		<layer id="298" name="3864538648_const" type="Const" version="opset1">
			<data element_type="f16" offset="39186" shape="16,1,1,3,3" size="288"/>
			<output>
				<port id="1" precision="FP16">
					<dim>16</dim>
					<dim>1</dim>
					<dim>1</dim>
					<dim>3</dim>
					<dim>3</dim>
				</port>
			</output>
		</layer>
		<layer id="299" name="depthwise_conv2d_12/depthwise_conv2d" type="GroupConvolution" version="opset1">
			<data auto_pad="same_upper" dilations="1,1" output_padding="0,0" pads_begin="0,0" pads_end="0,0" strides="1,1"/>
			<input>
				<port id="0">
					<dim>1</dim>
					<dim>16</dim>
					<dim>64</dim>
					<dim>64</dim>
				</port>
				<port id="1">
					<dim>16</dim>
					<dim>1</dim>
					<dim>1</dim>
					<dim>3</dim>
					<dim>3</dim>
				</port>
			</input>
			<output>
				<port id="2" precision="FP16">
					<dim>1</dim>
					<dim>16</dim>
					<dim>64</dim>
					<dim>64</dim>
				</port>
			</output>
		</layer>
		<layer id="300" name="depthwise_conv2d_12/Bias/read/Output_0/Data_/copy_const" type="Const" version="opset1">
			<data element_type="f16" offset="29586" shape="1,16,1,1" size="32"/>
			<output>
				<port id="1" precision="FP16">
					<dim>1</dim>
					<dim>16</dim>
					<dim>1</dim>
					<dim>1</dim>
				</port>
			</output>
		</layer>
		<layer id="301" name="depthwise_conv2d_12" type="Add" version="opset1">
			<input>
				<port id="0">
					<dim>1</dim>
					<dim>16</dim>
					<dim>64</dim>
					<dim>64</dim>
				</port>
				<port id="1">
					<dim>1</dim>
					<dim>16</dim>
					<dim>1</dim>
					<dim>1</dim>
				</port>
			</input>
			<output>
				<port id="2" precision="FP16">
					<dim>1</dim>
					<dim>16</dim>
					<dim>64</dim>
					<dim>64</dim>
				</port>
			</output>
		</layer>
		<layer id="302" name="conv2d_26/Kernel/read/Output_0/Data__const" type="Const" version="opset1">
			<data element_type="f16" offset="39474" shape="32,16,1,1" size="1024"/>
			<output>
				<port id="1" precision="FP16">
					<dim>32</dim>
					<dim>16</dim>
					<dim>1</dim>
					<dim>1</dim>
				</port>
			</output>
		</layer>
		<layer id="303" name="conv2d_26/conv2d" type="Convolution" version="opset1">
			<data auto_pad="valid" dilations="1,1" output_padding="0,0" pads_begin="0,0" pads_end="0,0" strides="1,1"/>
			<input>
				<port id="0">
					<dim>1</dim>
					<dim>16</dim>
					<dim>64</dim>
					<dim>64</dim>
				</port>
				<port id="1">
					<dim>32</dim>
					<dim>16</dim>
					<dim>1</dim>
					<dim>1</dim>
				</port>
			</input>
			<output>
				<port id="2" precision="FP16">
					<dim>1</dim>
					<dim>32</dim>
					<dim>64</dim>
					<dim>64</dim>
				</port>
			</output>
		</layer>
		<layer id="304" name="conv2d_26/Bias/read/Output_0/Data_/copy_const" type="Const" version="opset1">
			<data element_type="f16" offset="40498" shape="1,32,1,1" size="64"/>
			<output>
				<port id="1" precision="FP16">
					<dim>1</dim>
					<dim>32</dim>
					<dim>1</dim>
					<dim>1</dim>
				</port>
			</output>
		</layer>
		<layer id="305" name="conv2d_26" type="Add" version="opset1">
			<input>
				<port id="0">
					<dim>1</dim>
					<dim>32</dim>
					<dim>64</dim>
					<dim>64</dim>
				</port>
				<port id="1">
					<dim>1</dim>
					<dim>32</dim>
					<dim>1</dim>
					<dim>1</dim>
				</port>
			</input>
			<output>
				<port id="2" precision="FP16">
					<dim>1</dim>
					<dim>32</dim>
					<dim>64</dim>
					<dim>64</dim>
				</port>
			</output>
		</layer>
		<layer id="306" name="add_12" type="Add" version="opset1">
			<input>
				<port id="0">
					<dim>1</dim>
					<dim>32</dim>
					<dim>64</dim>
					<dim>64</dim>
				</port>
				<port id="1">
					<dim>1</dim>
					<dim>32</dim>
					<dim>64</dim>
					<dim>64</dim>
				</port>
			</input>
			<output>
				<port id="2" precision="FP16">
					<dim>1</dim>
					<dim>32</dim>
					<dim>64</dim>
					<dim>64</dim>
				</port>
			</output>
		</layer>
		<layer id="307" name="p_re_lu_26/mul" type="Multiply" version="opset1">
			<input>
				<port id="0">
					<dim>1</dim>
					<dim>32</dim>
					<dim>1</dim>
					<dim>1</dim>
				</port>
				<port id="1">
					<dim>1</dim>
					<dim>32</dim>
					<dim>64</dim>
					<dim>64</dim>
				</port>
			</input>
			<output>
				<port id="2" precision="FP16">
					<dim>1</dim>
					<dim>32</dim>
					<dim>64</dim>
					<dim>64</dim>
				</port>
			</output>
		</layer>
		<layer id="308" name="p_re_lu_26/Maximum" type="Maximum" version="opset1">
			<input>
				<port id="0">
					<dim>1</dim>
					<dim>32</dim>
					<dim>64</dim>
					<dim>64</dim>
				</port>
				<port id="1">
					<dim>1</dim>
					<dim>32</dim>
					<dim>64</dim>
					<dim>64</dim>
				</port>
			</input>
			<output>
				<port id="2" precision="FP16">
					<dim>1</dim>
					<dim>32</dim>
					<dim>64</dim>
					<dim>64</dim>
				</port>
			</output>
		</layer>
		<layer id="309" name="p_re_lu_27/p_re_lu_27/Alpha/read/Output_0/Data_/copy_const" type="Const" version="opset1">
			<data element_type="f16" offset="40562" shape="1,16,1,1" size="32"/>
			<output>
				<port id="1" precision="FP16">
					<dim>1</dim>
					<dim>16</dim>
					<dim>1</dim>
					<dim>1</dim>
				</port>
			</output>
		</layer>
		<layer id="310" name="conv2d_27/Kernel/read/Output_0/Data__const" type="Const" version="opset1">
			<data element_type="f16" offset="40594" shape="16,32,1,1" size="1024"/>
			<output>
				<port id="1" precision="FP16">
					<dim>16</dim>
					<dim>32</dim>
					<dim>1</dim>
					<dim>1</dim>
				</port>
			</output>
		</layer>
		<layer id="311" name="conv2d_27/conv2d" type="Convolution" version="opset1">
			<data auto_pad="valid" dilations="1,1" output_padding="0,0" pads_begin="0,0" pads_end="0,0" strides="1,1"/>
			<input>
				<port id="0">
					<dim>1</dim>
					<dim>32</dim>
					<dim>64</dim>
					<dim>64</dim>
				</port>
				<port id="1">
					<dim>16</dim>
					<dim>32</dim>
					<dim>1</dim>
					<dim>1</dim>
				</port>
			</input>
			<output>
				<port id="2" precision="FP16">
					<dim>1</dim>
					<dim>16</dim>
					<dim>64</dim>
					<dim>64</dim>
				</port>
			</output>
		</layer>
		<layer id="312" name="conv2d_27/Bias/read/Output_0/Data_/copy_const" type="Const" version="opset1">
			<data element_type="f16" offset="41618" shape="1,16,1,1" size="32"/>
			<output>
				<port id="1" precision="FP16">
					<dim>1</dim>
					<dim>16</dim>
					<dim>1</dim>
					<dim>1</dim>
				</port>
			</output>
		</layer>
		<layer id="313" name="conv2d_27" type="Add" version="opset1">
			<input>
				<port id="0">
					<dim>1</dim>
					<dim>16</dim>
					<dim>64</dim>
					<dim>64</dim>
				</port>
				<port id="1">
					<dim>1</dim>
					<dim>16</dim>
					<dim>1</dim>
					<dim>1</dim>
				</port>
			</input>
			<output>
				<port id="2" precision="FP16">
					<dim>1</dim>
					<dim>16</dim>
					<dim>64</dim>
					<dim>64</dim>
				</port>
			</output>
		</layer>
		<layer id="314" name="p_re_lu_27/mul" type="Multiply" version="opset1">
			<input>
				<port id="0">
					<dim>1</dim>
					<dim>16</dim>
					<dim>1</dim>
					<dim>1</dim>
				</port>
				<port id="1">
					<dim>1</dim>
					<dim>16</dim>
					<dim>64</dim>
					<dim>64</dim>
				</port>
			</input>
			<output>
				<port id="2" precision="FP16">
					<dim>1</dim>
					<dim>16</dim>
					<dim>64</dim>
					<dim>64</dim>
				</port>
			</output>
		</layer>
		<layer id="315" name="p_re_lu_27/Maximum" type="Maximum" version="opset1">
			<input>
				<port id="0">
					<dim>1</dim>
					<dim>16</dim>
					<dim>64</dim>
					<dim>64</dim>
				</port>
				<port id="1">
					<dim>1</dim>
					<dim>16</dim>
					<dim>64</dim>
					<dim>64</dim>
				</port>
			</input>
			<output>
				<port id="2" precision="FP16">
					<dim>1</dim>
					<dim>16</dim>
					<dim>64</dim>
					<dim>64</dim>
				</port>
			</output>
		</layer>
		<layer id="316" name="3862938632_const" type="Const" version="opset1">
			<data element_type="f16" offset="41650" shape="16,1,1,3,3" size="288"/>
			<output>
				<port id="1" precision="FP16">
					<dim>16</dim>
					<dim>1</dim>
					<dim>1</dim>
					<dim>3</dim>
					<dim>3</dim>
				</port>
			</output>
		</layer>
		<layer id="317" name="depthwise_conv2d_13/depthwise_conv2d" type="GroupConvolution" version="opset1">
			<data auto_pad="same_upper" dilations="1,1" output_padding="0,0" pads_begin="0,0" pads_end="0,0" strides="1,1"/>
			<input>
				<port id="0">
					<dim>1</dim>
					<dim>16</dim>
					<dim>64</dim>
					<dim>64</dim>
				</port>
				<port id="1">
					<dim>16</dim>
					<dim>1</dim>
					<dim>1</dim>
					<dim>3</dim>
					<dim>3</dim>
				</port>
			</input>
			<output>
				<port id="2" precision="FP16">
					<dim>1</dim>
					<dim>16</dim>
					<dim>64</dim>
					<dim>64</dim>
				</port>
			</output>
		</layer>
		<layer id="318" name="depthwise_conv2d_13/Bias/read/Output_0/Data_/copy_const" type="Const" version="opset1">
			<data element_type="f16" offset="29586" shape="1,16,1,1" size="32"/>
			<output>
				<port id="1" precision="FP16">
					<dim>1</dim>
					<dim>16</dim>
					<dim>1</dim>
					<dim>1</dim>
				</port>
			</output>
		</layer>
		<layer id="319" name="depthwise_conv2d_13" type="Add" version="opset1">
			<input>
				<port id="0">
					<dim>1</dim>
					<dim>16</dim>
					<dim>64</dim>
					<dim>64</dim>
				</port>
				<port id="1">
					<dim>1</dim>
					<dim>16</dim>
					<dim>1</dim>
					<dim>1</dim>
				</port>
			</input>
			<output>
				<port id="2" precision="FP16">
					<dim>1</dim>
					<dim>16</dim>
					<dim>64</dim>
					<dim>64</dim>
				</port>
			</output>
		</layer>
		<layer id="320" name="conv2d_28/Kernel/read/Output_0/Data__const" type="Const" version="opset1">
			<data element_type="f16" offset="41938" shape="32,16,1,1" size="1024"/>
			<output>
				<port id="1" precision="FP16">
					<dim>32</dim>
					<dim>16</dim>
					<dim>1</dim>
					<dim>1</dim>
				</port>
			</output>
		</layer>
		<layer id="321" name="conv2d_28/conv2d" type="Convolution" version="opset1">
			<data auto_pad="valid" dilations="1,1" output_padding="0,0" pads_begin="0,0" pads_end="0,0" strides="1,1"/>
			<input>
				<port id="0">
					<dim>1</dim>
					<dim>16</dim>
					<dim>64</dim>
					<dim>64</dim>
				</port>
				<port id="1">
					<dim>32</dim>
					<dim>16</dim>
					<dim>1</dim>
					<dim>1</dim>
				</port>
			</input>
			<output>
				<port id="2" precision="FP16">
					<dim>1</dim>
					<dim>32</dim>
					<dim>64</dim>
					<dim>64</dim>
				</port>
			</output>
		</layer>
		<layer id="322" name="conv2d_28/Bias/read/Output_0/Data_/copy_const" type="Const" version="opset1">
			<data element_type="f16" offset="42962" shape="1,32,1,1" size="64"/>
			<output>
				<port id="1" precision="FP16">
					<dim>1</dim>
					<dim>32</dim>
					<dim>1</dim>
					<dim>1</dim>
				</port>
			</output>
		</layer>
		<layer id="323" name="conv2d_28" type="Add" version="opset1">
			<input>
				<port id="0">
					<dim>1</dim>
					<dim>32</dim>
					<dim>64</dim>
					<dim>64</dim>
				</port>
				<port id="1">
					<dim>1</dim>
					<dim>32</dim>
					<dim>1</dim>
					<dim>1</dim>
				</port>
			</input>
			<output>
				<port id="2" precision="FP16">
					<dim>1</dim>
					<dim>32</dim>
					<dim>64</dim>
					<dim>64</dim>
				</port>
			</output>
		</layer>
		<layer id="324" name="add_13" type="Add" version="opset1">
			<input>
				<port id="0">
					<dim>1</dim>
					<dim>32</dim>
					<dim>64</dim>
					<dim>64</dim>
				</port>
				<port id="1">
					<dim>1</dim>
					<dim>32</dim>
					<dim>64</dim>
					<dim>64</dim>
				</port>
			</input>
			<output>
				<port id="2" precision="FP16">
					<dim>1</dim>
					<dim>32</dim>
					<dim>64</dim>
					<dim>64</dim>
				</port>
			</output>
		</layer>
		<layer id="325" name="p_re_lu_28/mul" type="Multiply" version="opset1">
			<input>
				<port id="0">
					<dim>1</dim>
					<dim>32</dim>
					<dim>1</dim>
					<dim>1</dim>
				</port>
				<port id="1">
					<dim>1</dim>
					<dim>32</dim>
					<dim>64</dim>
					<dim>64</dim>
				</port>
			</input>
			<output>
				<port id="2" precision="FP16">
					<dim>1</dim>
					<dim>32</dim>
					<dim>64</dim>
					<dim>64</dim>
				</port>
			</output>
		</layer>
		<layer id="326" name="p_re_lu_28/Maximum" type="Maximum" version="opset1">
			<input>
				<port id="0">
					<dim>1</dim>
					<dim>32</dim>
					<dim>64</dim>
					<dim>64</dim>
				</port>
				<port id="1">
					<dim>1</dim>
					<dim>32</dim>
					<dim>64</dim>
					<dim>64</dim>
				</port>
			</input>
			<output>
				<port id="2" precision="FP16">
					<dim>1</dim>
					<dim>32</dim>
					<dim>64</dim>
					<dim>64</dim>
				</port>
			</output>
		</layer>
		<layer id="327" name="p_re_lu_29/p_re_lu_29/Alpha/read/Output_0/Data_/copy_const" type="Const" version="opset1">
			<data element_type="f16" offset="43026" shape="1,16,1,1" size="32"/>
			<output>
				<port id="1" precision="FP16">
					<dim>1</dim>
					<dim>16</dim>
					<dim>1</dim>
					<dim>1</dim>
				</port>
			</output>
		</layer>
		<layer id="328" name="conv2d_29/Kernel/read/Output_0/Data__const" type="Const" version="opset1">
			<data element_type="f16" offset="43058" shape="16,32,1,1" size="1024"/>
			<output>
				<port id="1" precision="FP16">
					<dim>16</dim>
					<dim>32</dim>
					<dim>1</dim>
					<dim>1</dim>
				</port>
			</output>
		</layer>
		<layer id="329" name="conv2d_29/conv2d" type="Convolution" version="opset1">
			<data auto_pad="valid" dilations="1,1" output_padding="0,0" pads_begin="0,0" pads_end="0,0" strides="1,1"/>
			<input>
				<port id="0">
					<dim>1</dim>
					<dim>32</dim>
					<dim>64</dim>
					<dim>64</dim>
				</port>
				<port id="1">
					<dim>16</dim>
					<dim>32</dim>
					<dim>1</dim>
					<dim>1</dim>
				</port>
			</input>
			<output>
				<port id="2" precision="FP16">
					<dim>1</dim>
					<dim>16</dim>
					<dim>64</dim>
					<dim>64</dim>
				</port>
			</output>
		</layer>
		<layer id="330" name="conv2d_29/Bias/read/Output_0/Data_/copy_const" type="Const" version="opset1">
			<data element_type="f16" offset="44082" shape="1,16,1,1" size="32"/>
			<output>
				<port id="1" precision="FP16">
					<dim>1</dim>
					<dim>16</dim>
					<dim>1</dim>
					<dim>1</dim>
				</port>
			</output>
		</layer>
		<layer id="331" name="conv2d_29" type="Add" version="opset1">
			<input>
				<port id="0">
					<dim>1</dim>
					<dim>16</dim>
					<dim>64</dim>
					<dim>64</dim>
				</port>
				<port id="1">
					<dim>1</dim>
					<dim>16</dim>
					<dim>1</dim>
					<dim>1</dim>
				</port>
			</input>
			<output>
				<port id="2" precision="FP16">
					<dim>1</dim>
					<dim>16</dim>
					<dim>64</dim>
					<dim>64</dim>
				</port>
			</output>
		</layer>
		<layer id="332" name="p_re_lu_29/mul" type="Multiply" version="opset1">
			<input>
				<port id="0">
					<dim>1</dim>
					<dim>16</dim>
					<dim>1</dim>
					<dim>1</dim>
				</port>
				<port id="1">
					<dim>1</dim>
					<dim>16</dim>
					<dim>64</dim>
					<dim>64</dim>
				</port>
			</input>
			<output>
				<port id="2" precision="FP16">
					<dim>1</dim>
					<dim>16</dim>
					<dim>64</dim>
					<dim>64</dim>
				</port>
			</output>
		</layer>
		<layer id="333" name="p_re_lu_29/Maximum" type="Maximum" version="opset1">
			<input>
				<port id="0">
					<dim>1</dim>
					<dim>16</dim>
					<dim>64</dim>
					<dim>64</dim>
				</port>
				<port id="1">
					<dim>1</dim>
					<dim>16</dim>
					<dim>64</dim>
					<dim>64</dim>
				</port>
			</input>
			<output>
				<port id="2" precision="FP16">
					<dim>1</dim>
					<dim>16</dim>
					<dim>64</dim>
					<dim>64</dim>
				</port>
			</output>
		</layer>
		<layer id="334" name="3852538528_const" type="Const" version="opset1">
			<data element_type="f16" offset="44114" shape="16,1,1,3,3" size="288"/>
			<output>
				<port id="1" precision="FP16">
					<dim>16</dim>
					<dim>1</dim>
					<dim>1</dim>
					<dim>3</dim>
					<dim>3</dim>
				</port>
			</output>
		</layer>
		<layer id="335" name="depthwise_conv2d_14/depthwise_conv2d" type="GroupConvolution" version="opset1">
			<data auto_pad="same_upper" dilations="1,1" output_padding="0,0" pads_begin="0,0" pads_end="0,0" strides="1,1"/>
			<input>
				<port id="0">
					<dim>1</dim>
					<dim>16</dim>
					<dim>64</dim>
					<dim>64</dim>
				</port>
				<port id="1">
					<dim>16</dim>
					<dim>1</dim>
					<dim>1</dim>
					<dim>3</dim>
					<dim>3</dim>
				</port>
			</input>
			<output>
				<port id="2" precision="FP16">
					<dim>1</dim>
					<dim>16</dim>
					<dim>64</dim>
					<dim>64</dim>
				</port>
			</output>
		</layer>
		<layer id="336" name="depthwise_conv2d_14/Bias/read/Output_0/Data_/copy_const" type="Const" version="opset1">
			<data element_type="f16" offset="29586" shape="1,16,1,1" size="32"/>
			<output>
				<port id="1" precision="FP16">
					<dim>1</dim>
					<dim>16</dim>
					<dim>1</dim>
					<dim>1</dim>
				</port>
			</output>
		</layer>
		<layer id="337" name="depthwise_conv2d_14" type="Add" version="opset1">
			<input>
				<port id="0">
					<dim>1</dim>
					<dim>16</dim>
					<dim>64</dim>
					<dim>64</dim>
				</port>
				<port id="1">
					<dim>1</dim>
					<dim>16</dim>
					<dim>1</dim>
					<dim>1</dim>
				</port>
			</input>
			<output>
				<port id="2" precision="FP16">
					<dim>1</dim>
					<dim>16</dim>
					<dim>64</dim>
					<dim>64</dim>
				</port>
			</output>
		</layer>
		<layer id="338" name="conv2d_30/Kernel/read/Output_0/Data__const" type="Const" version="opset1">
			<data element_type="f16" offset="44402" shape="32,16,1,1" size="1024"/>
			<output>
				<port id="1" precision="FP16">
					<dim>32</dim>
					<dim>16</dim>
					<dim>1</dim>
					<dim>1</dim>
				</port>
			</output>
		</layer>
		<layer id="339" name="conv2d_30/conv2d" type="Convolution" version="opset1">
			<data auto_pad="valid" dilations="1,1" output_padding="0,0" pads_begin="0,0" pads_end="0,0" strides="1,1"/>
			<input>
				<port id="0">
					<dim>1</dim>
					<dim>16</dim>
					<dim>64</dim>
					<dim>64</dim>
				</port>
				<port id="1">
					<dim>32</dim>
					<dim>16</dim>
					<dim>1</dim>
					<dim>1</dim>
				</port>
			</input>
			<output>
				<port id="2" precision="FP16">
					<dim>1</dim>
					<dim>32</dim>
					<dim>64</dim>
					<dim>64</dim>
				</port>
			</output>
		</layer>
		<layer id="340" name="conv2d_30/Bias/read/Output_0/Data_/copy_const" type="Const" version="opset1">
			<data element_type="f16" offset="45426" shape="1,32,1,1" size="64"/>
			<output>
				<port id="1" precision="FP16">
					<dim>1</dim>
					<dim>32</dim>
					<dim>1</dim>
					<dim>1</dim>
				</port>
			</output>
		</layer>
		<layer id="341" name="conv2d_30" type="Add" version="opset1">
			<input>
				<port id="0">
					<dim>1</dim>
					<dim>32</dim>
					<dim>64</dim>
					<dim>64</dim>
				</port>
				<port id="1">
					<dim>1</dim>
					<dim>32</dim>
					<dim>1</dim>
					<dim>1</dim>
				</port>
			</input>
			<output>
				<port id="2" precision="FP16">
					<dim>1</dim>
					<dim>32</dim>
					<dim>64</dim>
					<dim>64</dim>
				</port>
			</output>
		</layer>
		<layer id="342" name="add_14" type="Add" version="opset1">
			<input>
				<port id="0">
					<dim>1</dim>
					<dim>32</dim>
					<dim>64</dim>
					<dim>64</dim>
				</port>
				<port id="1">
					<dim>1</dim>
					<dim>32</dim>
					<dim>64</dim>
					<dim>64</dim>
				</port>
			</input>
			<output>
				<port id="2" precision="FP16">
					<dim>1</dim>
					<dim>32</dim>
					<dim>64</dim>
					<dim>64</dim>
				</port>
			</output>
		</layer>
		<layer id="343" name="p_re_lu_30/mul" type="Multiply" version="opset1">
			<input>
				<port id="0">
					<dim>1</dim>
					<dim>32</dim>
					<dim>1</dim>
					<dim>1</dim>
				</port>
				<port id="1">
					<dim>1</dim>
					<dim>32</dim>
					<dim>64</dim>
					<dim>64</dim>
				</port>
			</input>
			<output>
				<port id="2" precision="FP16">
					<dim>1</dim>
					<dim>32</dim>
					<dim>64</dim>
					<dim>64</dim>
				</port>
			</output>
		</layer>
		<layer id="344" name="p_re_lu_30/Maximum" type="Maximum" version="opset1">
			<input>
				<port id="0">
					<dim>1</dim>
					<dim>32</dim>
					<dim>64</dim>
					<dim>64</dim>
				</port>
				<port id="1">
					<dim>1</dim>
					<dim>32</dim>
					<dim>64</dim>
					<dim>64</dim>
				</port>
			</input>
			<output>
				<port id="2" precision="FP16">
					<dim>1</dim>
					<dim>32</dim>
					<dim>64</dim>
					<dim>64</dim>
				</port>
			</output>
		</layer>
		<layer id="345" name="p_re_lu_31/p_re_lu_31/Alpha/read/Output_0/Data_/copy_const" type="Const" version="opset1">
			<data element_type="f16" offset="45490" shape="1,16,1,1" size="32"/>
			<output>
				<port id="1" precision="FP16">
					<dim>1</dim>
					<dim>16</dim>
					<dim>1</dim>
					<dim>1</dim>
				</port>
			</output>
		</layer>
		<layer id="346" name="conv2d_31/Kernel/read/Output_0/Data__const" type="Const" version="opset1">
			<data element_type="f16" offset="45522" shape="16,32,1,1" size="1024"/>
			<output>
				<port id="1" precision="FP16">
					<dim>16</dim>
					<dim>32</dim>
					<dim>1</dim>
					<dim>1</dim>
				</port>
			</output>
		</layer>
		<layer id="347" name="conv2d_31/conv2d" type="Convolution" version="opset1">
			<data auto_pad="valid" dilations="1,1" output_padding="0,0" pads_begin="0,0" pads_end="0,0" strides="1,1"/>
			<input>
				<port id="0">
					<dim>1</dim>
					<dim>32</dim>
					<dim>64</dim>
					<dim>64</dim>
				</port>
				<port id="1">
					<dim>16</dim>
					<dim>32</dim>
					<dim>1</dim>
					<dim>1</dim>
				</port>
			</input>
			<output>
				<port id="2" precision="FP16">
					<dim>1</dim>
					<dim>16</dim>
					<dim>64</dim>
					<dim>64</dim>
				</port>
			</output>
		</layer>
		<layer id="348" name="conv2d_31/Bias/read/Output_0/Data_/copy_const" type="Const" version="opset1">
			<data element_type="f16" offset="46546" shape="1,16,1,1" size="32"/>
			<output>
				<port id="1" precision="FP16">
					<dim>1</dim>
					<dim>16</dim>
					<dim>1</dim>
					<dim>1</dim>
				</port>
			</output>
		</layer>
		<layer id="349" name="conv2d_31" type="Add" version="opset1">
			<input>
				<port id="0">
					<dim>1</dim>
					<dim>16</dim>
					<dim>64</dim>
					<dim>64</dim>
				</port>
				<port id="1">
					<dim>1</dim>
					<dim>16</dim>
					<dim>1</dim>
					<dim>1</dim>
				</port>
			</input>
			<output>
				<port id="2" precision="FP16">
					<dim>1</dim>
					<dim>16</dim>
					<dim>64</dim>
					<dim>64</dim>
				</port>
			</output>
		</layer>
		<layer id="350" name="p_re_lu_31/mul" type="Multiply" version="opset1">
			<input>
				<port id="0">
					<dim>1</dim>
					<dim>16</dim>
					<dim>1</dim>
					<dim>1</dim>
				</port>
				<port id="1">
					<dim>1</dim>
					<dim>16</dim>
					<dim>64</dim>
					<dim>64</dim>
				</port>
			</input>
			<output>
				<port id="2" precision="FP16">
					<dim>1</dim>
					<dim>16</dim>
					<dim>64</dim>
					<dim>64</dim>
				</port>
			</output>
		</layer>
		<layer id="351" name="p_re_lu_31/Maximum" type="Maximum" version="opset1">
			<input>
				<port id="0">
					<dim>1</dim>
					<dim>16</dim>
					<dim>64</dim>
					<dim>64</dim>
				</port>
				<port id="1">
					<dim>1</dim>
					<dim>16</dim>
					<dim>64</dim>
					<dim>64</dim>
				</port>
			</input>
			<output>
				<port id="2" precision="FP16">
					<dim>1</dim>
					<dim>16</dim>
					<dim>64</dim>
					<dim>64</dim>
				</port>
			</output>
		</layer>
		<layer id="352" name="3847738480_const" type="Const" version="opset1">
			<data element_type="f16" offset="46578" shape="16,1,1,3,3" size="288"/>
			<output>
				<port id="1" precision="FP16">
					<dim>16</dim>
					<dim>1</dim>
					<dim>1</dim>
					<dim>3</dim>
					<dim>3</dim>
				</port>
			</output>
		</layer>
		<layer id="353" name="depthwise_conv2d_15/depthwise_conv2d" type="GroupConvolution" version="opset1">
			<data auto_pad="same_upper" dilations="1,1" output_padding="0,0" pads_begin="0,0" pads_end="0,0" strides="1,1"/>
			<input>
				<port id="0">
					<dim>1</dim>
					<dim>16</dim>
					<dim>64</dim>
					<dim>64</dim>
				</port>
				<port id="1">
					<dim>16</dim>
					<dim>1</dim>
					<dim>1</dim>
					<dim>3</dim>
					<dim>3</dim>
				</port>
			</input>
			<output>
				<port id="2" precision="FP16">
					<dim>1</dim>
					<dim>16</dim>
					<dim>64</dim>
					<dim>64</dim>
				</port>
			</output>
		</layer>
		<layer id="354" name="depthwise_conv2d_15/Bias/read/Output_0/Data_/copy_const" type="Const" version="opset1">
			<data element_type="f16" offset="29586" shape="1,16,1,1" size="32"/>
			<output>
				<port id="1" precision="FP16">
					<dim>1</dim>
					<dim>16</dim>
					<dim>1</dim>
					<dim>1</dim>
				</port>
			</output>
		</layer>
		<layer id="355" name="depthwise_conv2d_15" type="Add" version="opset1">
			<input>
				<port id="0">
					<dim>1</dim>
					<dim>16</dim>
					<dim>64</dim>
					<dim>64</dim>
				</port>
				<port id="1">
					<dim>1</dim>
					<dim>16</dim>
					<dim>1</dim>
					<dim>1</dim>
				</port>
			</input>
			<output>
				<port id="2" precision="FP16">
					<dim>1</dim>
					<dim>16</dim>
					<dim>64</dim>
					<dim>64</dim>
				</port>
			</output>
		</layer>
		<layer id="356" name="conv2d_32/Kernel/read/Output_0/Data__const" type="Const" version="opset1">
			<data element_type="f16" offset="46866" shape="32,16,1,1" size="1024"/>
			<output>
				<port id="1" precision="FP16">
					<dim>32</dim>
					<dim>16</dim>
					<dim>1</dim>
					<dim>1</dim>
				</port>
			</output>
		</layer>
		<layer id="357" name="conv2d_32/conv2d" type="Convolution" version="opset1">
			<data auto_pad="valid" dilations="1,1" output_padding="0,0" pads_begin="0,0" pads_end="0,0" strides="1,1"/>
			<input>
				<port id="0">
					<dim>1</dim>
					<dim>16</dim>
					<dim>64</dim>
					<dim>64</dim>
				</port>
				<port id="1">
					<dim>32</dim>
					<dim>16</dim>
					<dim>1</dim>
					<dim>1</dim>
				</port>
			</input>
			<output>
				<port id="2" precision="FP16">
					<dim>1</dim>
					<dim>32</dim>
					<dim>64</dim>
					<dim>64</dim>
				</port>
			</output>
		</layer>
		<layer id="358" name="conv2d_32/Bias/read/Output_0/Data_/copy_const" type="Const" version="opset1">
			<data element_type="f16" offset="47890" shape="1,32,1,1" size="64"/>
			<output>
				<port id="1" precision="FP16">
					<dim>1</dim>
					<dim>32</dim>
					<dim>1</dim>
					<dim>1</dim>
				</port>
			</output>
		</layer>
		<layer id="359" name="conv2d_32" type="Add" version="opset1">
			<input>
				<port id="0">
					<dim>1</dim>
					<dim>32</dim>
					<dim>64</dim>
					<dim>64</dim>
				</port>
				<port id="1">
					<dim>1</dim>
					<dim>32</dim>
					<dim>1</dim>
					<dim>1</dim>
				</port>
			</input>
			<output>
				<port id="2" precision="FP16">
					<dim>1</dim>
					<dim>32</dim>
					<dim>64</dim>
					<dim>64</dim>
				</port>
			</output>
		</layer>
		<layer id="360" name="add_15" type="Add" version="opset1">
			<input>
				<port id="0">
					<dim>1</dim>
					<dim>32</dim>
					<dim>64</dim>
					<dim>64</dim>
				</port>
				<port id="1">
					<dim>1</dim>
					<dim>32</dim>
					<dim>64</dim>
					<dim>64</dim>
				</port>
			</input>
			<output>
…
		<edge from-layer="640" from-port="2" to-layer="642" to-port="1"/>
		<edge from-layer="642" from-port="2" to-layer="645" to-port="0"/>
		<edge from-layer="644" from-port="1" to-layer="645" to-port="1"/>
		<edge from-layer="645" from-port="2" to-layer="647" to-port="0"/>
		<edge from-layer="646" from-port="1" to-layer="647" to-port="1"/>
		<edge from-layer="643" from-port="1" to-layer="648" to-port="0"/>
		<edge from-layer="647" from-port="2" to-layer="648" to-port="1"/>
		<edge from-layer="648" from-port="2" to-layer="649" to-port="0"/>
		<edge from-layer="647" from-port="2" to-layer="649" to-port="1"/>
		<edge from-layer="649" from-port="2" to-layer="651" to-port="0"/>
		<edge from-layer="650" from-port="1" to-layer="651" to-port="1"/>
		<edge from-layer="651" from-port="2" to-layer="653" to-port="0"/>
		<edge from-layer="652" from-port="1" to-layer="653" to-port="1"/>
		<edge from-layer="653" from-port="2" to-layer="655" to-port="0"/>
		<edge from-layer="654" from-port="1" to-layer="655" to-port="1"/>
		<edge from-layer="655" from-port="2" to-layer="657" to-port="0"/>
		<edge from-layer="656" from-port="1" to-layer="657" to-port="1"/>
		<edge from-layer="642" from-port="2" to-layer="658" to-port="0"/>
		<edge from-layer="657" from-port="2" to-layer="658" to-port="1"/>
		<edge from-layer="30" from-port="1" to-layer="659" to-port="0"/>
		<edge from-layer="658" from-port="2" to-layer="659" to-port="1"/>
		<edge from-layer="659" from-port="2" to-layer="660" to-port="0"/>
		<edge from-layer="658" from-port="2" to-layer="660" to-port="1"/>
		<edge from-layer="660" from-port="2" to-layer="663" to-port="0"/>
		<edge from-layer="662" from-port="1" to-layer="663" to-port="1"/>
		<edge from-layer="663" from-port="2" to-layer="665" to-port="0"/>
		<edge from-layer="664" from-port="1" to-layer="665" to-port="1"/>
		<edge from-layer="661" from-port="1" to-layer="666" to-port="0"/>
		<edge from-layer="665" from-port="2" to-layer="666" to-port="1"/>
		<edge from-layer="666" from-port="2" to-layer="667" to-port="0"/>
		<edge from-layer="665" from-port="2" to-layer="667" to-port="1"/>
		<edge from-layer="667" from-port="2" to-layer="669" to-port="0"/>
		<edge from-layer="668" from-port="1" to-layer="669" to-port="1"/>
		<edge from-layer="669" from-port="2" to-layer="671" to-port="0"/>
		<edge from-layer="670" from-port="1" to-layer="671" to-port="1"/>
		<edge from-layer="671" from-port="2" to-layer="673" to-port="0"/>
		<edge from-layer="672" from-port="1" to-layer="673" to-port="1"/>
		<edge from-layer="673" from-port="2" to-layer="675" to-port="0"/>
		<edge from-layer="674" from-port="1" to-layer="675" to-port="1"/>
		<edge from-layer="660" from-port="2" to-layer="676" to-port="0"/>
		<edge from-layer="675" from-port="2" to-layer="676" to-port="1"/>
		<edge from-layer="29" from-port="1" to-layer="677" to-port="0"/>
		<edge from-layer="676" from-port="2" to-layer="677" to-port="1"/>
		<edge from-layer="677" from-port="2" to-layer="678" to-port="0"/>
		<edge from-layer="676" from-port="2" to-layer="678" to-port="1"/>
		<edge from-layer="678" from-port="2" to-layer="681" to-port="0"/>
		<edge from-layer="680" from-port="1" to-layer="681" to-port="1"/>
		<edge from-layer="681" from-port="2" to-layer="683" to-port="0"/>
		<edge from-layer="682" from-port="1" to-layer="683" to-port="1"/>
		<edge from-layer="679" from-port="1" to-layer="684" to-port="0"/>
		<edge from-layer="683" from-port="2" to-layer="684" to-port="1"/>
		<edge from-layer="684" from-port="2" to-layer="685" to-port="0"/>
		<edge from-layer="683" from-port="2" to-layer="685" to-port="1"/>
		<edge from-layer="685" from-port="2" to-layer="687" to-port="0"/>
		<edge from-layer="686" from-port="1" to-layer="687" to-port="1"/>
		<edge from-layer="687" from-port="2" to-layer="689" to-port="0"/>
		<edge from-layer="688" from-port="1" to-layer="689" to-port="1"/>
		<edge from-layer="689" from-port="2" to-layer="691" to-port="0"/>
		<edge from-layer="690" from-port="1" to-layer="691" to-port="1"/>
		<edge from-layer="691" from-port="2" to-layer="693" to-port="0"/>
		<edge from-layer="692" from-port="1" to-layer="693" to-port="1"/>
		<edge from-layer="678" from-port="2" to-layer="694" to-port="0"/>
		<edge from-layer="693" from-port="2" to-layer="694" to-port="1"/>
		<edge from-layer="28" from-port="1" to-layer="695" to-port="0"/>
		<edge from-layer="694" from-port="2" to-layer="695" to-port="1"/>
		<edge from-layer="695" from-port="2" to-layer="696" to-port="0"/>
		<edge from-layer="694" from-port="2" to-layer="696" to-port="1"/>
		<edge from-layer="696" from-port="2" to-layer="699" to-port="0"/>
		<edge from-layer="698" from-port="1" to-layer="699" to-port="1"/>
		<edge from-layer="699" from-port="2" to-layer="701" to-port="0"/>
		<edge from-layer="700" from-port="1" to-layer="701" to-port="1"/>
		<edge from-layer="697" from-port="1" to-layer="702" to-port="0"/>
		<edge from-layer="701" from-port="2" to-layer="702" to-port="1"/>
		<edge from-layer="702" from-port="2" to-layer="703" to-port="0"/>
		<edge from-layer="701" from-port="2" to-layer="703" to-port="1"/>
		<edge from-layer="703" from-port="2" to-layer="705" to-port="0"/>
		<edge from-layer="704" from-port="1" to-layer="705" to-port="1"/>
		<edge from-layer="705" from-port="2" to-layer="707" to-port="0"/>
		<edge from-layer="706" from-port="1" to-layer="707" to-port="1"/>
		<edge from-layer="707" from-port="2" to-layer="709" to-port="0"/>
		<edge from-layer="708" from-port="1" to-layer="709" to-port="1"/>
		<edge from-layer="709" from-port="2" to-layer="711" to-port="0"/>
		<edge from-layer="710" from-port="1" to-layer="711" to-port="1"/>
		<edge from-layer="696" from-port="2" to-layer="712" to-port="0"/>
		<edge from-layer="711" from-port="2" to-layer="712" to-port="1"/>
		<edge from-layer="27" from-port="1" to-layer="713" to-port="0"/>
		<edge from-layer="712" from-port="2" to-layer="713" to-port="1"/>
		<edge from-layer="713" from-port="2" to-layer="714" to-port="0"/>
		<edge from-layer="712" from-port="2" to-layer="714" to-port="1"/>
		<edge from-layer="714" from-port="2" to-layer="715" to-port="0"/>
		<edge from-layer="714" from-port="2" to-layer="718" to-port="0"/>
		<edge from-layer="717" from-port="1" to-layer="718" to-port="1"/>
		<edge from-layer="718" from-port="2" to-layer="720" to-port="0"/>
		<edge from-layer="719" from-port="1" to-layer="720" to-port="1"/>
		<edge from-layer="716" from-port="1" to-layer="721" to-port="0"/>
		<edge from-layer="720" from-port="2" to-layer="721" to-port="1"/>
		<edge from-layer="721" from-port="2" to-layer="722" to-port="0"/>
		<edge from-layer="720" from-port="2" to-layer="722" to-port="1"/>
		<edge from-layer="722" from-port="2" to-layer="724" to-port="0"/>
		<edge from-layer="723" from-port="1" to-layer="724" to-port="1"/>
		<edge from-layer="724" from-port="2" to-layer="726" to-port="0"/>
		<edge from-layer="725" from-port="1" to-layer="726" to-port="1"/>
		<edge from-layer="726" from-port="2" to-layer="728" to-port="0"/>
		<edge from-layer="727" from-port="1" to-layer="728" to-port="1"/>
		<edge from-layer="728" from-port="2" to-layer="730" to-port="0"/>
		<edge from-layer="729" from-port="1" to-layer="730" to-port="1"/>
		<edge from-layer="715" from-port="1" to-layer="731" to-port="0"/>
		<edge from-layer="730" from-port="2" to-layer="731" to-port="1"/>
		<edge from-layer="26" from-port="1" to-layer="732" to-port="0"/>
		<edge from-layer="731" from-port="2" to-layer="732" to-port="1"/>
		<edge from-layer="732" from-port="2" to-layer="733" to-port="0"/>
		<edge from-layer="731" from-port="2" to-layer="733" to-port="1"/>
		<edge from-layer="733" from-port="2" to-layer="736" to-port="0"/>
		<edge from-layer="735" from-port="1" to-layer="736" to-port="1"/>
		<edge from-layer="736" from-port="2" to-layer="738" to-port="0"/>
		<edge from-layer="737" from-port="1" to-layer="738" to-port="1"/>
		<edge from-layer="734" from-port="1" to-layer="739" to-port="0"/>
		<edge from-layer="738" from-port="2" to-layer="739" to-port="1"/>
		<edge from-layer="739" from-port="2" to-layer="740" to-port="0"/>
		<edge from-layer="738" from-port="2" to-layer="740" to-port="1"/>
		<edge from-layer="740" from-port="2" to-layer="742" to-port="0"/>
		<edge from-layer="741" from-port="1" to-layer="742" to-port="1"/>
		<edge from-layer="742" from-port="2" to-layer="744" to-port="0"/>
		<edge from-layer="743" from-port="1" to-layer="744" to-port="1"/>
		<edge from-layer="744" from-port="2" to-layer="746" to-port="0"/>
		<edge from-layer="745" from-port="1" to-layer="746" to-port="1"/>
		<edge from-layer="746" from-port="2" to-layer="748" to-port="0"/>
		<edge from-layer="747" from-port="1" to-layer="748" to-port="1"/>
		<edge from-layer="733" from-port="2" to-layer="749" to-port="0"/>
		<edge from-layer="748" from-port="2" to-layer="749" to-port="1"/>
		<edge from-layer="25" from-port="1" to-layer="750" to-port="0"/>
		<edge from-layer="749" from-port="2" to-layer="750" to-port="1"/>
		<edge from-layer="750" from-port="2" to-layer="751" to-port="0"/>
		<edge from-layer="749" from-port="2" to-layer="751" to-port="1"/>
		<edge from-layer="751" from-port="2" to-layer="754" to-port="0"/>
		<edge from-layer="753" from-port="1" to-layer="754" to-port="1"/>
		<edge from-layer="754" from-port="2" to-layer="756" to-port="0"/>
		<edge from-layer="755" from-port="1" to-layer="756" to-port="1"/>
		<edge from-layer="752" from-port="1" to-layer="757" to-port="0"/>
		<edge from-layer="756" from-port="2" to-layer="757" to-port="1"/>
		<edge from-layer="757" from-port="2" to-layer="758" to-port="0"/>
		<edge from-layer="756" from-port="2" to-layer="758" to-port="1"/>
		<edge from-layer="758" from-port="2" to-layer="760" to-port="0"/>
		<edge from-layer="759" from-port="1" to-layer="760" to-port="1"/>
		<edge from-layer="760" from-port="2" to-layer="762" to-port="0"/>
		<edge from-layer="761" from-port="1" to-layer="762" to-port="1"/>
		<edge from-layer="762" from-port="2" to-layer="764" to-port="0"/>
		<edge from-layer="763" from-port="1" to-layer="764" to-port="1"/>
		<edge from-layer="764" from-port="2" to-layer="766" to-port="0"/>
		<edge from-layer="765" from-port="1" to-layer="766" to-port="1"/>
		<edge from-layer="751" from-port="2" to-layer="767" to-port="0"/>
		<edge from-layer="766" from-port="2" to-layer="767" to-port="1"/>
		<edge from-layer="24" from-port="1" to-layer="768" to-port="0"/>
		<edge from-layer="767" from-port="2" to-layer="768" to-port="1"/>
		<edge from-layer="768" from-port="2" to-layer="769" to-port="0"/>
		<edge from-layer="767" from-port="2" to-layer="769" to-port="1"/>
		<edge from-layer="769" from-port="2" to-layer="772" to-port="0"/>
		<edge from-layer="771" from-port="1" to-layer="772" to-port="1"/>
		<edge from-layer="772" from-port="2" to-layer="774" to-port="0"/>
		<edge from-layer="773" from-port="1" to-layer="774" to-port="1"/>
		<edge from-layer="770" from-port="1" to-layer="775" to-port="0"/>
		<edge from-layer="774" from-port="2" to-layer="775" to-port="1"/>
		<edge from-layer="775" from-port="2" to-layer="776" to-port="0"/>
		<edge from-layer="774" from-port="2" to-layer="776" to-port="1"/>
		<edge from-layer="776" from-port="2" to-layer="778" to-port="0"/>
		<edge from-layer="777" from-port="1" to-layer="778" to-port="1"/>
		<edge from-layer="778" from-port="2" to-layer="780" to-port="0"/>
		<edge from-layer="779" from-port="1" to-layer="780" to-port="1"/>
		<edge from-layer="780" from-port="2" to-layer="782" to-port="0"/>
		<edge from-layer="781" from-port="1" to-layer="782" to-port="1"/>
		<edge from-layer="782" from-port="2" to-layer="784" to-port="0"/>
		<edge from-layer="783" from-port="1" to-layer="784" to-port="1"/>
		<edge from-layer="769" from-port="2" to-layer="785" to-port="0"/>
		<edge from-layer="784" from-port="2" to-layer="785" to-port="1"/>
		<edge from-layer="23" from-port="1" to-layer="786" to-port="0"/>
		<edge from-layer="785" from-port="2" to-layer="786" to-port="1"/>
		<edge from-layer="786" from-port="2" to-layer="787" to-port="0"/>
		<edge from-layer="785" from-port="2" to-layer="787" to-port="1"/>
		<edge from-layer="787" from-port="2" to-layer="790" to-port="0"/>
		<edge from-layer="789" from-port="1" to-layer="790" to-port="1"/>
		<edge from-layer="790" from-port="2" to-layer="792" to-port="0"/>
		<edge from-layer="791" from-port="1" to-layer="792" to-port="1"/>
		<edge from-layer="788" from-port="1" to-layer="793" to-port="0"/>
		<edge from-layer="792" from-port="2" to-layer="793" to-port="1"/>
		<edge from-layer="793" from-port="2" to-layer="794" to-port="0"/>
		<edge from-layer="792" from-port="2" to-layer="794" to-port="1"/>
		<edge from-layer="794" from-port="2" to-layer="796" to-port="0"/>
		<edge from-layer="795" from-port="1" to-layer="796" to-port="1"/>
		<edge from-layer="796" from-port="2" to-layer="798" to-port="0"/>
		<edge from-layer="797" from-port="1" to-layer="798" to-port="1"/>
		<edge from-layer="798" from-port="2" to-layer="800" to-port="0"/>
		<edge from-layer="799" from-port="1" to-layer="800" to-port="1"/>
		<edge from-layer="800" from-port="2" to-layer="802" to-port="0"/>
		<edge from-layer="801" from-port="1" to-layer="802" to-port="1"/>
		<edge from-layer="787" from-port="2" to-layer="803" to-port="0"/>
		<edge from-layer="802" from-port="2" to-layer="803" to-port="1"/>
		<edge from-layer="22" from-port="1" to-layer="804" to-port="0"/>
		<edge from-layer="803" from-port="2" to-layer="804" to-port="1"/>
		<edge from-layer="804" from-port="2" to-layer="805" to-port="0"/>
		<edge from-layer="803" from-port="2" to-layer="805" to-port="1"/>
		<edge from-layer="805" from-port="2" to-layer="808" to-port="0"/>
		<edge from-layer="807" from-port="1" to-layer="808" to-port="1"/>
		<edge from-layer="808" from-port="2" to-layer="810" to-port="0"/>
		<edge from-layer="809" from-port="1" to-layer="810" to-port="1"/>
		<edge from-layer="806" from-port="1" to-layer="811" to-port="0"/>
		<edge from-layer="810" from-port="2" to-layer="811" to-port="1"/>
		<edge from-layer="811" from-port="2" to-layer="812" to-port="0"/>
		<edge from-layer="810" from-port="2" to-layer="812" to-port="1"/>
		<edge from-layer="812" from-port="2" to-layer="814" to-port="0"/>
		<edge from-layer="813" from-port="1" to-layer="814" to-port="1"/>
		<edge from-layer="814" from-port="2" to-layer="816" to-port="0"/>
		<edge from-layer="815" from-port="1" to-layer="816" to-port="1"/>
		<edge from-layer="816" from-port="2" to-layer="818" to-port="0"/>
		<edge from-layer="817" from-port="1" to-layer="818" to-port="1"/>
		<edge from-layer="818" from-port="2" to-layer="820" to-port="0"/>
		<edge from-layer="819" from-port="1" to-layer="820" to-port="1"/>
		<edge from-layer="805" from-port="2" to-layer="821" to-port="0"/>
		<edge from-layer="820" from-port="2" to-layer="821" to-port="1"/>
		<edge from-layer="21" from-port="1" to-layer="822" to-port="0"/>
		<edge from-layer="821" from-port="2" to-layer="822" to-port="1"/>
		<edge from-layer="822" from-port="2" to-layer="823" to-port="0"/>
		<edge from-layer="821" from-port="2" to-layer="823" to-port="1"/>
		<edge from-layer="823" from-port="2" to-layer="826" to-port="0"/>
		<edge from-layer="825" from-port="1" to-layer="826" to-port="1"/>
		<edge from-layer="826" from-port="2" to-layer="828" to-port="0"/>
		<edge from-layer="827" from-port="1" to-layer="828" to-port="1"/>
		<edge from-layer="824" from-port="1" to-layer="829" to-port="0"/>
		<edge from-layer="828" from-port="2" to-layer="829" to-port="1"/>
		<edge from-layer="829" from-port="2" to-layer="830" to-port="0"/>
		<edge from-layer="828" from-port="2" to-layer="830" to-port="1"/>
		<edge from-layer="830" from-port="2" to-layer="832" to-port="0"/>
		<edge from-layer="831" from-port="1" to-layer="832" to-port="1"/>
		<edge from-layer="832" from-port="2" to-layer="834" to-port="0"/>
		<edge from-layer="833" from-port="1" to-layer="834" to-port="1"/>
		<edge from-layer="834" from-port="2" to-layer="836" to-port="0"/>
		<edge from-layer="835" from-port="1" to-layer="836" to-port="1"/>
		<edge from-layer="836" from-port="2" to-layer="838" to-port="0"/>
		<edge from-layer="837" from-port="1" to-layer="838" to-port="1"/>
		<edge from-layer="823" from-port="2" to-layer="839" to-port="0"/>
		<edge from-layer="838" from-port="2" to-layer="839" to-port="1"/>
		<edge from-layer="20" from-port="1" to-layer="840" to-port="0"/>
		<edge from-layer="839" from-port="2" to-layer="840" to-port="1"/>
		<edge from-layer="840" from-port="2" to-layer="841" to-port="0"/>
		<edge from-layer="839" from-port="2" to-layer="841" to-port="1"/>
		<edge from-layer="841" from-port="2" to-layer="844" to-port="0"/>
		<edge from-layer="843" from-port="1" to-layer="844" to-port="1"/>
		<edge from-layer="844" from-port="2" to-layer="846" to-port="0"/>
		<edge from-layer="845" from-port="1" to-layer="846" to-port="1"/>
		<edge from-layer="842" from-port="1" to-layer="847" to-port="0"/>
		<edge from-layer="846" from-port="2" to-layer="847" to-port="1"/>
		<edge from-layer="847" from-port="2" to-layer="848" to-port="0"/>
		<edge from-layer="846" from-port="2" to-layer="848" to-port="1"/>
		<edge from-layer="848" from-port="2" to-layer="850" to-port="0"/>
		<edge from-layer="849" from-port="1" to-layer="850" to-port="1"/>
		<edge from-layer="850" from-port="2" to-layer="852" to-port="0"/>
		<edge from-layer="851" from-port="1" to-layer="852" to-port="1"/>
		<edge from-layer="852" from-port="2" to-layer="854" to-port="0"/>
		<edge from-layer="853" from-port="1" to-layer="854" to-port="1"/>
		<edge from-layer="854" from-port="2" to-layer="856" to-port="0"/>
		<edge from-layer="855" from-port="1" to-layer="856" to-port="1"/>
		<edge from-layer="841" from-port="2" to-layer="857" to-port="0"/>
		<edge from-layer="856" from-port="2" to-layer="857" to-port="1"/>
		<edge from-layer="19" from-port="1" to-layer="858" to-port="0"/>
		<edge from-layer="857" from-port="2" to-layer="858" to-port="1"/>
		<edge from-layer="858" from-port="2" to-layer="859" to-port="0"/>
		<edge from-layer="857" from-port="2" to-layer="859" to-port="1"/>
		<edge from-layer="859" from-port="2" to-layer="862" to-port="0"/>
		<edge from-layer="861" from-port="1" to-layer="862" to-port="1"/>
		<edge from-layer="862" from-port="2" to-layer="864" to-port="0"/>
		<edge from-layer="863" from-port="1" to-layer="864" to-port="1"/>
		<edge from-layer="860" from-port="1" to-layer="865" to-port="0"/>
		<edge from-layer="864" from-port="2" to-layer="865" to-port="1"/>
		<edge from-layer="865" from-port="2" to-layer="866" to-port="0"/>
		<edge from-layer="864" from-port="2" to-layer="866" to-port="1"/>
		<edge from-layer="866" from-port="2" to-layer="868" to-port="0"/>
		<edge from-layer="867" from-port="1" to-layer="868" to-port="1"/>
		<edge from-layer="868" from-port="2" to-layer="870" to-port="0"/>
		<edge from-layer="869" from-port="1" to-layer="870" to-port="1"/>
		<edge from-layer="870" from-port="2" to-layer="872" to-port="0"/>
		<edge from-layer="871" from-port="1" to-layer="872" to-port="1"/>
		<edge from-layer="872" from-port="2" to-layer="874" to-port="0"/>
		<edge from-layer="873" from-port="1" to-layer="874" to-port="1"/>
		<edge from-layer="859" from-port="2" to-layer="875" to-port="0"/>
		<edge from-layer="874" from-port="2" to-layer="875" to-port="1"/>
		<edge from-layer="18" from-port="1" to-layer="876" to-port="0"/>
		<edge from-layer="875" from-port="2" to-layer="876" to-port="1"/>
		<edge from-layer="876" from-port="2" to-layer="877" to-port="0"/>
		<edge from-layer="875" from-port="2" to-layer="877" to-port="1"/>
		<edge from-layer="877" from-port="2" to-layer="878" to-port="0"/>
		<edge from-layer="877" from-port="2" to-layer="881" to-port="0"/>
		<edge from-layer="880" from-port="1" to-layer="881" to-port="1"/>
		<edge from-layer="881" from-port="2" to-layer="883" to-port="0"/>
		<edge from-layer="882" from-port="1" to-layer="883" to-port="1"/>
		<edge from-layer="879" from-port="1" to-layer="884" to-port="0"/>
		<edge from-layer="883" from-port="2" to-layer="884" to-port="1"/>
		<edge from-layer="884" from-port="2" to-layer="885" to-port="0"/>
		<edge from-layer="883" from-port="2" to-layer="885" to-port="1"/>
		<edge from-layer="885" from-port="2" to-layer="887" to-port="0"/>
		<edge from-layer="886" from-port="1" to-layer="887" to-port="1"/>
		<edge from-layer="887" from-port="2" to-layer="889" to-port="0"/>
		<edge from-layer="888" from-port="1" to-layer="889" to-port="1"/>
		<edge from-layer="889" from-port="2" to-layer="891" to-port="0"/>
		<edge from-layer="890" from-port="1" to-layer="891" to-port="1"/>
		<edge from-layer="891" from-port="2" to-layer="893" to-port="0"/>
		<edge from-layer="892" from-port="1" to-layer="893" to-port="1"/>
		<edge from-layer="878" from-port="1" to-layer="894" to-port="0"/>
		<edge from-layer="893" from-port="2" to-layer="894" to-port="1"/>
		<edge from-layer="17" from-port="1" to-layer="895" to-port="0"/>
		<edge from-layer="894" from-port="2" to-layer="895" to-port="1"/>
		<edge from-layer="895" from-port="2" to-layer="896" to-port="0"/>
		<edge from-layer="894" from-port="2" to-layer="896" to-port="1"/>
		<edge from-layer="896" from-port="2" to-layer="899" to-port="0"/>
		<edge from-layer="898" from-port="1" to-layer="899" to-port="1"/>
		<edge from-layer="899" from-port="2" to-layer="901" to-port="0"/>
		<edge from-layer="900" from-port="1" to-layer="901" to-port="1"/>
		<edge from-layer="897" from-port="1" to-layer="902" to-port="0"/>
		<edge from-layer="901" from-port="2" to-layer="902" to-port="1"/>
		<edge from-layer="902" from-port="2" to-layer="903" to-port="0"/>
		<edge from-layer="901" from-port="2" to-layer="903" to-port="1"/>
		<edge from-layer="903" from-port="2" to-layer="905" to-port="0"/>
		<edge from-layer="904" from-port="1" to-layer="905" to-port="1"/>
		<edge from-layer="905" from-port="2" to-layer="907" to-port="0"/>
		<edge from-layer="906" from-port="1" to-layer="907" to-port="1"/>
		<edge from-layer="907" from-port="2" to-layer="909" to-port="0"/>
		<edge from-layer="908" from-port="1" to-layer="909" to-port="1"/>
		<edge from-layer="909" from-port="2" to-layer="911" to-port="0"/>
		<edge from-layer="910" from-port="1" to-layer="911" to-port="1"/>
		<edge from-layer="896" from-port="2" to-layer="912" to-port="0"/>
		<edge from-layer="911" from-port="2" to-layer="912" to-port="1"/>
		<edge from-layer="16" from-port="1" to-layer="913" to-port="0"/>
		<edge from-layer="912" from-port="2" to-layer="913" to-port="1"/>
		<edge from-layer="913" from-port="2" to-layer="914" to-port="0"/>
		<edge from-layer="912" from-port="2" to-layer="914" to-port="1"/>
		<edge from-layer="914" from-port="2" to-layer="917" to-port="0"/>
		<edge from-layer="916" from-port="1" to-layer="917" to-port="1"/>
		<edge from-layer="917" from-port="2" to-layer="919" to-port="0"/>
		<edge from-layer="918" from-port="1" to-layer="919" to-port="1"/>
		<edge from-layer="915" from-port="1" to-layer="920" to-port="0"/>
		<edge from-layer="919" from-port="2" to-layer="920" to-port="1"/>
		<edge from-layer="920" from-port="2" to-layer="921" to-port="0"/>
		<edge from-layer="919" from-port="2" to-layer="921" to-port="1"/>
		<edge from-layer="921" from-port="2" to-layer="923" to-port="0"/>
		<edge from-layer="922" from-port="1" to-layer="923" to-port="1"/>
		<edge from-layer="923" from-port="2" to-layer="925" to-port="0"/>
		<edge from-layer="924" from-port="1" to-layer="925" to-port="1"/>
		<edge from-layer="925" from-port="2" to-layer="927" to-port="0"/>
		<edge from-layer="926" from-port="1" to-layer="927" to-port="1"/>
		<edge from-layer="927" from-port="2" to-layer="929" to-port="0"/>
		<edge from-layer="928" from-port="1" to-layer="929" to-port="1"/>
		<edge from-layer="914" from-port="2" to-layer="930" to-port="0"/>
		<edge from-layer="929" from-port="2" to-layer="930" to-port="1"/>
		<edge from-layer="15" from-port="1" to-layer="931" to-port="0"/>
		<edge from-layer="930" from-port="2" to-layer="931" to-port="1"/>
		<edge from-layer="931" from-port="2" to-layer="932" to-port="0"/>
		<edge from-layer="930" from-port="2" to-layer="932" to-port="1"/>
		<edge from-layer="932" from-port="2" to-layer="935" to-port="0"/>
		<edge from-layer="934" from-port="1" to-layer="935" to-port="1"/>
		<edge from-layer="935" from-port="2" to-layer="937" to-port="0"/>
		<edge from-layer="936" from-port="1" to-layer="937" to-port="1"/>
		<edge from-layer="933" from-port="1" to-layer="938" to-port="0"/>
		<edge from-layer="937" from-port="2" to-layer="938" to-port="1"/>
		<edge from-layer="938" from-port="2" to-layer="939" to-port="0"/>
		<edge from-layer="937" from-port="2" to-layer="939" to-port="1"/>
		<edge from-layer="939" from-port="2" to-layer="941" to-port="0"/>
		<edge from-layer="940" from-port="1" to-layer="941" to-port="1"/>
		<edge from-layer="941" from-port="2" to-layer="943" to-port="0"/>
		<edge from-layer="942" from-port="1" to-layer="943" to-port="1"/>
		<edge from-layer="943" from-port="2" to-layer="945" to-port="0"/>
		<edge from-layer="944" from-port="1" to-layer="945" to-port="1"/>
		<edge from-layer="945" from-port="2" to-layer="947" to-port="0"/>
		<edge from-layer="946" from-port="1" to-layer="947" to-port="1"/>
		<edge from-layer="932" from-port="2" to-layer="948" to-port="0"/>
		<edge from-layer="947" from-port="2" to-layer="948" to-port="1"/>
		<edge from-layer="14" from-port="1" to-layer="949" to-port="0"/>
		<edge from-layer="948" from-port="2" to-layer="949" to-port="1"/>
		<edge from-layer="949" from-port="2" to-layer="950" to-port="0"/>
		<edge from-layer="948" from-port="2" to-layer="950" to-port="1"/>
		<edge from-layer="950" from-port="2" to-layer="953" to-port="0"/>
		<edge from-layer="952" from-port="1" to-layer="953" to-port="1"/>
		<edge from-layer="953" from-port="2" to-layer="955" to-port="0"/>
		<edge from-layer="954" from-port="1" to-layer="955" to-port="1"/>
		<edge from-layer="951" from-port="1" to-layer="956" to-port="0"/>
		<edge from-layer="955" from-port="2" to-layer="956" to-port="1"/>
		<edge from-layer="956" from-port="2" to-layer="957" to-port="0"/>
		<edge from-layer="955" from-port="2" to-layer="957" to-port="1"/>
		<edge from-layer="957" from-port="2" to-layer="959" to-port="0"/>
		<edge from-layer="958" from-port="1" to-layer="959" to-port="1"/>
		<edge from-layer="959" from-port="2" to-layer="961" to-port="0"/>
		<edge from-layer="960" from-port="1" to-layer="961" to-port="1"/>
		<edge from-layer="961" from-port="2" to-layer="963" to-port="0"/>
		<edge from-layer="962" from-port="1" to-layer="963" to-port="1"/>
		<edge from-layer="963" from-port="2" to-layer="965" to-port="0"/>
		<edge from-layer="964" from-port="1" to-layer="965" to-port="1"/>
		<edge from-layer="950" from-port="2" to-layer="966" to-port="0"/>
		<edge from-layer="965" from-port="2" to-layer="966" to-port="1"/>
		<edge from-layer="13" from-port="1" to-layer="967" to-port="0"/>
		<edge from-layer="966" from-port="2" to-layer="967" to-port="1"/>
		<edge from-layer="967" from-port="2" to-layer="968" to-port="0"/>
		<edge from-layer="966" from-port="2" to-layer="968" to-port="1"/>
		<edge from-layer="968" from-port="2" to-layer="971" to-port="0"/>
		<edge from-layer="970" from-port="1" to-layer="971" to-port="1"/>
		<edge from-layer="971" from-port="2" to-layer="973" to-port="0"/>
		<edge from-layer="972" from-port="1" to-layer="973" to-port="1"/>
		<edge from-layer="969" from-port="1" to-layer="974" to-port="0"/>
		<edge from-layer="973" from-port="2" to-layer="974" to-port="1"/>
		<edge from-layer="974" from-port="2" to-layer="975" to-port="0"/>
		<edge from-layer="973" from-port="2" to-layer="975" to-port="1"/>
		<edge from-layer="975" from-port="2" to-layer="977" to-port="0"/>
		<edge from-layer="976" from-port="1" to-layer="977" to-port="1"/>
		<edge from-layer="977" from-port="2" to-layer="979" to-port="0"/>
		<edge from-layer="978" from-port="1" to-layer="979" to-port="1"/>
		<edge from-layer="979" from-port="2" to-layer="981" to-port="0"/>
		<edge from-layer="980" from-port="1" to-layer="981" to-port="1"/>
		<edge from-layer="981" from-port="2" to-layer="983" to-port="0"/>
		<edge from-layer="982" from-port="1" to-layer="983" to-port="1"/>
		<edge from-layer="968" from-port="2" to-layer="984" to-port="0"/>
		<edge from-layer="983" from-port="2" to-layer="984" to-port="1"/>
		<edge from-layer="12" from-port="1" to-layer="985" to-port="0"/>
		<edge from-layer="984" from-port="2" to-layer="985" to-port="1"/>
		<edge from-layer="985" from-port="2" to-layer="986" to-port="0"/>
		<edge from-layer="984" from-port="2" to-layer="986" to-port="1"/>
		<edge from-layer="986" from-port="2" to-layer="989" to-port="0"/>
		<edge from-layer="988" from-port="1" to-layer="989" to-port="1"/>
		<edge from-layer="989" from-port="2" to-layer="991" to-port="0"/>
		<edge from-layer="990" from-port="1" to-layer="991" to-port="1"/>
		<edge from-layer="987" from-port="1" to-layer="992" to-port="0"/>
		<edge from-layer="991" from-port="2" to-layer="992" to-port="1"/>
		<edge from-layer="992" from-port="2" to-layer="993" to-port="0"/>
		<edge from-layer="991" from-port="2" to-layer="993" to-port="1"/>
		<edge from-layer="993" from-port="2" to-layer="995" to-port="0"/>
		<edge from-layer="994" from-port="1" to-layer="995" to-port="1"/>
		<edge from-layer="995" from-port="2" to-layer="997" to-port="0"/>
		<edge from-layer="996" from-port="1" to-layer="997" to-port="1"/>
		<edge from-layer="997" from-port="2" to-layer="999" to-port="0"/>
		<edge from-layer="998" from-port="1" to-layer="999" to-port="1"/>
		<edge from-layer="999" from-port="2" to-layer="1001" to-port="0"/>
		<edge from-layer="1000" from-port="1" to-layer="1001" to-port="1"/>
		<edge from-layer="986" from-port="2" to-layer="1002" to-port="0"/>
		<edge from-layer="1001" from-port="2" to-layer="1002" to-port="1"/>
		<edge from-layer="11" from-port="1" to-layer="1003" to-port="0"/>
		<edge from-layer="1002" from-port="2" to-layer="1003" to-port="1"/>
		<edge from-layer="1003" from-port="2" to-layer="1004" to-port="0"/>
		<edge from-layer="1002" from-port="2" to-layer="1004" to-port="1"/>
		<edge from-layer="1004" from-port="2" to-layer="1007" to-port="0"/>
		<edge from-layer="1006" from-port="1" to-layer="1007" to-port="1"/>
		<edge from-layer="1007" from-port="2" to-layer="1009" to-port="0"/>
		<edge from-layer="1008" from-port="1" to-layer="1009" to-port="1"/>
		<edge from-layer="1005" from-port="1" to-layer="1010" to-port="0"/>
		<edge from-layer="1009" from-port="2" to-layer="1010" to-port="1"/>
		<edge from-layer="1010" from-port="2" to-layer="1011" to-port="0"/>
		<edge from-layer="1009" from-port="2" to-layer="1011" to-port="1"/>
		<edge from-layer="1011" from-port="2" to-layer="1013" to-port="0"/>
		<edge from-layer="1012" from-port="1" to-layer="1013" to-port="1"/>
		<edge from-layer="1013" from-port="2" to-layer="1015" to-port="0"/>
		<edge from-layer="1014" from-port="1" to-layer="1015" to-port="1"/>
		<edge from-layer="1015" from-port="2" to-layer="1017" to-port="0"/>
		<edge from-layer="1016" from-port="1" to-layer="1017" to-port="1"/>
		<edge from-layer="1017" from-port="2" to-layer="1019" to-port="0"/>
		<edge from-layer="1018" from-port="1" to-layer="1019" to-port="1"/>
		<edge from-layer="1004" from-port="2" to-layer="1020" to-port="0"/>
		<edge from-layer="1019" from-port="2" to-layer="1020" to-port="1"/>
		<edge from-layer="10" from-port="1" to-layer="1021" to-port="0"/>
		<edge from-layer="1020" from-port="2" to-layer="1021" to-port="1"/>
		<edge from-layer="1021" from-port="2" to-layer="1022" to-port="0"/>
		<edge from-layer="1020" from-port="2" to-layer="1022" to-port="1"/>
		<edge from-layer="1022" from-port="2" to-layer="1025" to-port="0"/>
		<edge from-layer="1024" from-port="1" to-layer="1025" to-port="1"/>
		<edge from-layer="1025" from-port="2" to-layer="1027" to-port="0"/>
		<edge from-layer="1026" from-port="1" to-layer="1027" to-port="1"/>
		<edge from-layer="1023" from-port="1" to-layer="1028" to-port="0"/>
		<edge from-layer="1027" from-port="2" to-layer="1028" to-port="1"/>
		<edge from-layer="1028" from-port="2" to-layer="1029" to-port="0"/>
		<edge from-layer="1027" from-port="2" to-layer="1029" to-port="1"/>
		<edge from-layer="1029" from-port="2" to-layer="1031" to-port="0"/>
		<edge from-layer="1030" from-port="1" to-layer="1031" to-port="1"/>
		<edge from-layer="1031" from-port="2" to-layer="1033" to-port="0"/>
		<edge from-layer="1032" from-port="1" to-layer="1033" to-port="1"/>
		<edge from-layer="1033" from-port="2" to-layer="1035" to-port="0"/>
		<edge from-layer="1034" from-port="1" to-layer="1035" to-port="1"/>
		<edge from-layer="1035" from-port="2" to-layer="1037" to-port="0"/>
		<edge from-layer="1036" from-port="1" to-layer="1037" to-port="1"/>
		<edge from-layer="1022" from-port="2" to-layer="1038" to-port="0"/>
		<edge from-layer="1037" from-port="2" to-layer="1038" to-port="1"/>
		<edge from-layer="9" from-port="1" to-layer="1039" to-port="0"/>
		<edge from-layer="1038" from-port="2" to-layer="1039" to-port="1"/>
		<edge from-layer="1039" from-port="2" to-layer="1040" to-port="0"/>
		<edge from-layer="1038" from-port="2" to-layer="1040" to-port="1"/>
		<edge from-layer="1040" from-port="2" to-layer="1041" to-port="0"/>
		<edge from-layer="1040" from-port="2" to-layer="1044" to-port="0"/>
		<edge from-layer="1043" from-port="1" to-layer="1044" to-port="1"/>
		<edge from-layer="1044" from-port="2" to-layer="1046" to-port="0"/>
		<edge from-layer="1045" from-port="1" to-layer="1046" to-port="1"/>
		<edge from-layer="1042" from-port="1" to-layer="1047" to-port="0"/>
		<edge from-layer="1046" from-port="2" to-layer="1047" to-port="1"/>
		<edge from-layer="1047" from-port="2" to-layer="1048" to-port="0"/>
		<edge from-layer="1046" from-port="2" to-layer="1048" to-port="1"/>
		<edge from-layer="1048" from-port="2" to-layer="1050" to-port="0"/>
		<edge from-layer="1049" from-port="1" to-layer="1050" to-port="1"/>
		<edge from-layer="1050" from-port="2" to-layer="1052" to-port="0"/>
		<edge from-layer="1051" from-port="1" to-layer="1052" to-port="1"/>
		<edge from-layer="1052" from-port="2" to-layer="1054" to-port="0"/>
		<edge from-layer="1053" from-port="1" to-layer="1054" to-port="1"/>
		<edge from-layer="1054" from-port="2" to-layer="1056" to-port="0"/>
		<edge from-layer="1055" from-port="1" to-layer="1056" to-port="1"/>
		<edge from-layer="1041" from-port="1" to-layer="1057" to-port="0"/>
		<edge from-layer="1056" from-port="2" to-layer="1057" to-port="1"/>
		<edge from-layer="8" from-port="1" to-layer="1058" to-port="0"/>
		<edge from-layer="1057" from-port="2" to-layer="1058" to-port="1"/>
		<edge from-layer="1058" from-port="2" to-layer="1059" to-port="0"/>
		<edge from-layer="1057" from-port="2" to-layer="1059" to-port="1"/>
		<edge from-layer="1059" from-port="2" to-layer="1062" to-port="0"/>
		<edge from-layer="1061" from-port="1" to-layer="1062" to-port="1"/>
		<edge from-layer="1062" from-port="2" to-layer="1064" to-port="0"/>
		<edge from-layer="1063" from-port="1" to-layer="1064" to-port="1"/>
		<edge from-layer="1060" from-port="1" to-layer="1065" to-port="0"/>
		<edge from-layer="1064" from-port="2" to-layer="1065" to-port="1"/>
		<edge from-layer="1065" from-port="2" to-layer="1066" to-port="0"/>
		<edge from-layer="1064" from-port="2" to-layer="1066" to-port="1"/>
		<edge from-layer="1066" from-port="2" to-layer="1068" to-port="0"/>
		<edge from-layer="1067" from-port="1" to-layer="1068" to-port="1"/>
		<edge from-layer="1068" from-port="2" to-layer="1070" to-port="0"/>
		<edge from-layer="1069" from-port="1" to-layer="1070" to-port="1"/>
		<edge from-layer="1070" from-port="2" to-layer="1072" to-port="0"/>
		<edge from-layer="1071" from-port="1" to-layer="1072" to-port="1"/>
		<edge from-layer="1072" from-port="2" to-layer="1074" to-port="0"/>
		<edge from-layer="1073" from-port="1" to-layer="1074" to-port="1"/>
		<edge from-layer="1059" from-port="2" to-layer="1075" to-port="0"/>
		<edge from-layer="1074" from-port="2" to-layer="1075" to-port="1"/>
		<edge from-layer="7" from-port="1" to-layer="1076" to-port="0"/>
		<edge from-layer="1075" from-port="2" to-layer="1076" to-port="1"/>
		<edge from-layer="1076" from-port="2" to-layer="1077" to-port="0"/>
		<edge from-layer="1075" from-port="2" to-layer="1077" to-port="1"/>
		<edge from-layer="1077" from-port="2" to-layer="1080" to-port="0"/>
		<edge from-layer="1079" from-port="1" to-layer="1080" to-port="1"/>
		<edge from-layer="1080" from-port="2" to-layer="1082" to-port="0"/>
		<edge from-layer="1081" from-port="1" to-layer="1082" to-port="1"/>
		<edge from-layer="1078" from-port="1" to-layer="1083" to-port="0"/>
		<edge from-layer="1082" from-port="2" to-layer="1083" to-port="1"/>
		<edge from-layer="1083" from-port="2" to-layer="1084" to-port="0"/>
		<edge from-layer="1082" from-port="2" to-layer="1084" to-port="1"/>
		<edge from-layer="1084" from-port="2" to-layer="1086" to-port="0"/>
		<edge from-layer="1085" from-port="1" to-layer="1086" to-port="1"/>
		<edge from-layer="1086" from-port="2" to-layer="1088" to-port="0"/>
		<edge from-layer="1087" from-port="1" to-layer="1088" to-port="1"/>
		<edge from-layer="1088" from-port="2" to-layer="1090" to-port="0"/>
		<edge from-layer="1089" from-port="1" to-layer="1090" to-port="1"/>
		<edge from-layer="1090" from-port="2" to-layer="1092" to-port="0"/>
		<edge from-layer="1091" from-port="1" to-layer="1092" to-port="1"/>
		<edge from-layer="1077" from-port="2" to-layer="1093" to-port="0"/>
		<edge from-layer="1092" from-port="2" to-layer="1093" to-port="1"/>
		<edge from-layer="6" from-port="1" to-layer="1094" to-port="0"/>
		<edge from-layer="1093" from-port="2" to-layer="1094" to-port="1"/>
		<edge from-layer="1094" from-port="2" to-layer="1095" to-port="0"/>
		<edge from-layer="1093" from-port="2" to-layer="1095" to-port="1"/>
		<edge from-layer="1095" from-port="2" to-layer="1098" to-port="0"/>
		<edge from-layer="1097" from-port="1" to-layer="1098" to-port="1"/>
		<edge from-layer="1098" from-port="2" to-layer="1100" to-port="0"/>
		<edge from-layer="1099" from-port="1" to-layer="1100" to-port="1"/>
		<edge from-layer="1096" from-port="1" to-layer="1101" to-port="0"/>
		<edge from-layer="1100" from-port="2" to-layer="1101" to-port="1"/>
		<edge from-layer="1101" from-port="2" to-layer="1102" to-port="0"/>
		<edge from-layer="1100" from-port="2" to-layer="1102" to-port="1"/>
		<edge from-layer="1102" from-port="2" to-layer="1104" to-port="0"/>
		<edge from-layer="1103" from-port="1" to-layer="1104" to-port="1"/>
		<edge from-layer="1104" from-port="2" to-layer="1106" to-port="0"/>
		<edge from-layer="1105" from-port="1" to-layer="1106" to-port="1"/>
		<edge from-layer="1106" from-port="2" to-layer="1108" to-port="0"/>
		<edge from-layer="1107" from-port="1" to-layer="1108" to-port="1"/>
		<edge from-layer="1108" from-port="2" to-layer="1110" to-port="0"/>
		<edge from-layer="1109" from-port="1" to-layer="1110" to-port="1"/>
		<edge from-layer="1095" from-port="2" to-layer="1111" to-port="0"/>
		<edge from-layer="1110" from-port="2" to-layer="1111" to-port="1"/>
		<edge from-layer="5" from-port="1" to-layer="1112" to-port="0"/>
		<edge from-layer="1111" from-port="2" to-layer="1112" to-port="1"/>
		<edge from-layer="1112" from-port="2" to-layer="1113" to-port="0"/>
		<edge from-layer="1111" from-port="2" to-layer="1113" to-port="1"/>
		<edge from-layer="1113" from-port="2" to-layer="1116" to-port="0"/>
		<edge from-layer="1115" from-port="1" to-layer="1116" to-port="1"/>
		<edge from-layer="1116" from-port="2" to-layer="1118" to-port="0"/>
		<edge from-layer="1117" from-port="1" to-layer="1118" to-port="1"/>
		<edge from-layer="1114" from-port="1" to-layer="1119" to-port="0"/>
		<edge from-layer="1118" from-port="2" to-layer="1119" to-port="1"/>
		<edge from-layer="1119" from-port="2" to-layer="1120" to-port="0"/>
		<edge from-layer="1118" from-port="2" to-layer="1120" to-port="1"/>
		<edge from-layer="1120" from-port="2" to-layer="1122" to-port="0"/>
		<edge from-layer="1121" from-port="1" to-layer="1122" to-port="1"/>
		<edge from-layer="1122" from-port="2" to-layer="1124" to-port="0"/>
		<edge from-layer="1123" from-port="1" to-layer="1124" to-port="1"/>
		<edge from-layer="1124" from-port="2" to-layer="1126" to-port="0"/>
		<edge from-layer="1125" from-port="1" to-layer="1126" to-port="1"/>
		<edge from-layer="1126" from-port="2" to-layer="1128" to-port="0"/>
		<edge from-layer="1127" from-port="1" to-layer="1128" to-port="1"/>
		<edge from-layer="1113" from-port="2" to-layer="1129" to-port="0"/>
		<edge from-layer="1128" from-port="2" to-layer="1129" to-port="1"/>
		<edge from-layer="4" from-port="1" to-layer="1130" to-port="0"/>
		<edge from-layer="1129" from-port="2" to-layer="1130" to-port="1"/>
		<edge from-layer="1130" from-port="2" to-layer="1131" to-port="0"/>
		<edge from-layer="1129" from-port="2" to-layer="1131" to-port="1"/>
		<edge from-layer="1131" from-port="2" to-layer="1134" to-port="0"/>
		<edge from-layer="1133" from-port="1" to-layer="1134" to-port="1"/>
		<edge from-layer="1134" from-port="2" to-layer="1136" to-port="0"/>
		<edge from-layer="1135" from-port="1" to-layer="1136" to-port="1"/>
		<edge from-layer="1132" from-port="1" to-layer="1137" to-port="0"/>
		<edge from-layer="1136" from-port="2" to-layer="1137" to-port="1"/>
		<edge from-layer="1137" from-port="2" to-layer="1138" to-port="0"/>
		<edge from-layer="1136" from-port="2" to-layer="1138" to-port="1"/>
		<edge from-layer="1138" from-port="2" to-layer="1140" to-port="0"/>
		<edge from-layer="1139" from-port="1" to-layer="1140" to-port="1"/>
		<edge from-layer="1140" from-port="2" to-layer="1142" to-port="0"/>
		<edge from-layer="1141" from-port="1" to-layer="1142" to-port="1"/>
		<edge from-layer="1142" from-port="2" to-layer="1144" to-port="0"/>
		<edge from-layer="1143" from-port="1" to-layer="1144" to-port="1"/>
		<edge from-layer="1144" from-port="2" to-layer="1146" to-port="0"/>
		<edge from-layer="1145" from-port="1" to-layer="1146" to-port="1"/>
		<edge from-layer="1131" from-port="2" to-layer="1147" to-port="0"/>
		<edge from-layer="1146" from-port="2" to-layer="1147" to-port="1"/>
		<edge from-layer="3" from-port="1" to-layer="1148" to-port="0"/>
		<edge from-layer="1147" from-port="2" to-layer="1148" to-port="1"/>
		<edge from-layer="1148" from-port="2" to-layer="1149" to-port="0"/>
		<edge from-layer="1147" from-port="2" to-layer="1149" to-port="1"/>
		<edge from-layer="1149" from-port="2" to-layer="1152" to-port="0"/>
		<edge from-layer="1151" from-port="1" to-layer="1152" to-port="1"/>
		<edge from-layer="1152" from-port="2" to-layer="1154" to-port="0"/>
		<edge from-layer="1153" from-port="1" to-layer="1154" to-port="1"/>
		<edge from-layer="1150" from-port="1" to-layer="1155" to-port="0"/>
		<edge from-layer="1154" from-port="2" to-layer="1155" to-port="1"/>
		<edge from-layer="1155" from-port="2" to-layer="1156" to-port="0"/>
		<edge from-layer="1154" from-port="2" to-layer="1156" to-port="1"/>
		<edge from-layer="1156" from-port="2" to-layer="1158" to-port="0"/>
		<edge from-layer="1157" from-port="1" to-layer="1158" to-port="1"/>
		<edge from-layer="1158" from-port="2" to-layer="1160" to-port="0"/>
		<edge from-layer="1159" from-port="1" to-layer="1160" to-port="1"/>
		<edge from-layer="1160" from-port="2" to-layer="1162" to-port="0"/>
		<edge from-layer="1161" from-port="1" to-layer="1162" to-port="1"/>
		<edge from-layer="1162" from-port="2" to-layer="1164" to-port="0"/>
		<edge from-layer="1163" from-port="1" to-layer="1164" to-port="1"/>
		<edge from-layer="1149" from-port="2" to-layer="1165" to-port="0"/>
		<edge from-layer="1164" from-port="2" to-layer="1165" to-port="1"/>
		<edge from-layer="2" from-port="1" to-layer="1166" to-port="0"/>
		<edge from-layer="1165" from-port="2" to-layer="1166" to-port="1"/>
		<edge from-layer="1166" from-port="2" to-layer="1167" to-port="0"/>
		<edge from-layer="1165" from-port="2" to-layer="1167" to-port="1"/>
		<edge from-layer="1167" from-port="2" to-layer="1170" to-port="0"/>
		<edge from-layer="1169" from-port="1" to-layer="1170" to-port="1"/>
		<edge from-layer="1170" from-port="2" to-layer="1172" to-port="0"/>
		<edge from-layer="1171" from-port="1" to-layer="1172" to-port="1"/>
		<edge from-layer="1168" from-port="1" to-layer="1173" to-port="0"/>
		<edge from-layer="1172" from-port="2" to-layer="1173" to-port="1"/>
		<edge from-layer="1173" from-port="2" to-layer="1174" to-port="0"/>
		<edge from-layer="1172" from-port="2" to-layer="1174" to-port="1"/>
		<edge from-layer="1174" from-port="2" to-layer="1176" to-port="0"/>
		<edge from-layer="1175" from-port="1" to-layer="1176" to-port="1"/>
		<edge from-layer="1176" from-port="2" to-layer="1178" to-port="0"/>
		<edge from-layer="1177" from-port="1" to-layer="1178" to-port="1"/>
		<edge from-layer="1178" from-port="2" to-layer="1180" to-port="0"/>
		<edge from-layer="1179" from-port="1" to-layer="1180" to-port="1"/>
		<edge from-layer="1180" from-port="2" to-layer="1182" to-port="0"/>
		<edge from-layer="1181" from-port="1" to-layer="1182" to-port="1"/>
		<edge from-layer="1167" from-port="2" to-layer="1183" to-port="0"/>
		<edge from-layer="1182" from-port="2" to-layer="1183" to-port="1"/>
		<edge from-layer="1" from-port="1" to-layer="1184" to-port="0"/>
		<edge from-layer="1183" from-port="2" to-layer="1184" to-port="1"/>
		<edge from-layer="1184" from-port="2" to-layer="1185" to-port="0"/>
		<edge from-layer="1183" from-port="2" to-layer="1185" to-port="1"/>
		<edge from-layer="1185" from-port="2" to-layer="1188" to-port="0"/>
		<edge from-layer="1187" from-port="1" to-layer="1188" to-port="1"/>
		<edge from-layer="1188" from-port="2" to-layer="1190" to-port="0"/>
		<edge from-layer="1189" from-port="1" to-layer="1190" to-port="1"/>
		<edge from-layer="1186" from-port="1" to-layer="1191" to-port="0"/>
		<edge from-layer="1190" from-port="2" to-layer="1191" to-port="1"/>
		<edge from-layer="1191" from-port="2" to-layer="1192" to-port="0"/>
		<edge from-layer="1190" from-port="2" to-layer="1192" to-port="1"/>
		<edge from-layer="1192" from-port="2" to-layer="1194" to-port="0"/>
		<edge from-layer="1193" from-port="1" to-layer="1194" to-port="1"/>
		<edge from-layer="1194" from-port="2" to-layer="1196" to-port="0"/>
		<edge from-layer="1195" from-port="1" to-layer="1196" to-port="1"/>
		<edge from-layer="1196" from-port="2" to-layer="1198" to-port="0"/>
		<edge from-layer="1197" from-port="1" to-layer="1198" to-port="1"/>
		<edge from-layer="1198" from-port="2" to-layer="1200" to-port="0"/>
		<edge from-layer="1199" from-port="1" to-layer="1200" to-port="1"/>
		<edge from-layer="1185" from-port="2" to-layer="1201" to-port="0"/>
		<edge from-layer="1200" from-port="2" to-layer="1201" to-port="1"/>
		<edge from-layer="0" from-port="1" to-layer="1202" to-port="0"/>
		<edge from-layer="1201" from-port="2" to-layer="1202" to-port="1"/>
		<edge from-layer="1202" from-port="2" to-layer="1203" to-port="0"/>
		<edge from-layer="1201" from-port="2" to-layer="1203" to-port="1"/>
		<edge from-layer="1203" from-port="2" to-layer="1205" to-port="0"/>
		<edge from-layer="1204" from-port="1" to-layer="1205" to-port="1"/>
		<edge from-layer="1205" from-port="2" to-layer="1207" to-port="0"/>
		<edge from-layer="1206" from-port="1" to-layer="1207" to-port="1"/>
		<edge from-layer="1207" from-port="2" to-layer="1209" to-port="0"/>
		<edge from-layer="1208" from-port="1" to-layer="1209" to-port="1"/>
		<edge from-layer="1209" from-port="2" to-layer="1211" to-port="0"/>
		<edge from-layer="1210" from-port="1" to-layer="1211" to-port="1"/>
		<edge from-layer="1211" from-port="2" to-layer="1212" to-port="0"/>
		<edge from-layer="1203" from-port="2" to-layer="1214" to-port="0"/>
		<edge from-layer="1213" from-port="1" to-layer="1214" to-port="1"/>
		<edge from-layer="1214" from-port="2" to-layer="1216" to-port="0"/>
		<edge from-layer="1215" from-port="1" to-layer="1216" to-port="1"/>
		<edge from-layer="1216" from-port="2" to-layer="1217" to-port="0"/>
		<edge from-layer="1217" from-port="1" to-layer="1219" to-port="0"/>
		<edge from-layer="1218" from-port="1" to-layer="1219" to-port="1"/>
		<edge from-layer="1219" from-port="2" to-layer="1221" to-port="0"/>
		<edge from-layer="1220" from-port="1" to-layer="1221" to-port="1"/>
		<edge from-layer="1221" from-port="2" to-layer="1222" to-port="0"/>
	</edges>
	<meta_data>
		<MO_version value=""/>
		<cli_parameters>
			<blobs_as_inputs value="True"/>
			<data_type value="FP16"/>
			<disable_nhwc_to_nchw value="False"/>
			<disable_resnet_optimization value="False"/>
			<disable_weights_compression value="False"/>
			<enable_concat_optimization value="False"/>
			<extensions value="DIR"/>
			<framework value="tf"/>
			<freeze_placeholder_with_value value="{}"/>
			<generate_deprecated_IR_V2 value="False"/>
			<generate_deprecated_IR_V7 value="False"/>
			<generate_experimental_IR_V10 value="True"/>
			<input_model_is_text value="False"/>
			<input_shape value="[1,256,256,3]"/>
			<keep_quantize_ops_in_IR value="True"/>
			<keep_shape_ops value="False"/>
			<log_level value="ERROR"/>
			<mean_scale_values value="{}"/>
			<mean_values value="()"/>
			<model_name value="hand_landmark"/>
			<move_to_preprocess value="False"/>
			<output_dir value="DIR"/>
			<placeholder_data_types value="{}"/>
			<placeholder_shapes value="[  1 256 256   3]"/>
			<progress value="False"/>
			<reverse_input_channels value="False"/>
			<saved_model_dir value="DIR"/>
			<scale_values value="()"/>
			<silent value="False"/>
			<stream_output value="False"/>
			<unset unset_cli_parameters="batch, disable_fusing, disable_gfusing, finegrain_fusing, input, input_checkpoint, input_meta_graph, input_model, output, saved_model_tags, scale, tensorboard_logdir, tensorflow_custom_layer_libraries, tensorflow_custom_operations_config_update, tensorflow_object_detection_api_pipeline_config, tensorflow_use_custom_operations_config, transformations_config"/>
		</cli_parameters>
	</meta_data>
</net>
